Sem4/SI/lab7/saved_models/FrozenLake/QAgent/run-2025-05-28_10-37-22/model.npy (npy, 928 bytes, 1 tensors)

array f8 [25, 4]
0.0 0.0 0.0 0.0 283.441564530486 406.4559655459695 148.8414012719552 949.5165348612818
-0.9950000000000001 278.9531115373435 43.14593699950711 -0.95 -0.9950000000000001 -1.078260770452288 311.25260104923694 -0.99905
15.772917824247084 188.7143649452417 0.0 0.0 0.0 0.0 0.0 0.0
679.1252940224778 -3.3152892216600094 11.373601770580976 -508.64719150119146 222.67349105143927 59.21889395296421 59.788237373753304 104.69813796101566
10.890738767126845 -0.95 70.88307006429157 173.4794235237843 0.29390867350068545 0.0 0.0 181.27470885565918
-190.95 -87.53530690348796 106.00397377736117 -122.00201280565754 431.3403383479485 116.36642298405906 115.8175222868314 117.41101630839712
108.98068484697572 24.974689722539637 -2.2424405000000003 288.34201284256034 -73.12490668632815 -100.5 -90.65425503005545 76.09183813094529
105.81873360660566 0.0 0.0 0.0 82.20634790222184 -6.671050311630671 182.95642146086277 28.18936725944758
222.26436051738028 102.46202978908222 73.14506586484875 115.7420171431411 -196.56637904077354 -47.17907314811795 -253.2560693434035 -193.7236724410749
0.0 0.0 0.0 0.0 -96.3158829155661 19.302007945 0.0 0.0
73.27655300094423 70.8389043628347 155.18946406930837 79.64115668532445 160.74668488699427 81.74080159306207 42.90260653783427 97.26482616747654
-188.55411109660298 -195.95787334154448 -190.95 104.40842715165103 0.0 0.0 0.0 0.0
-97.81097055000001 0.0 0.0 0.0
00000000: 0000 0000 0000 0000 0000 0000 0000 0000
00000010: 0000 0000 0000 0000 0000 0000 0000 0000
00000020: 2d18 f8a5 10b7 7140 ab40 87a2 4b67 7940
00000030: 883b 5cc2 ec9a 6240 9883 07dd 21ac 8d40
00000040: d8a3 703d 0ad7 efbf 4a25 e2f1 3f6f 7140
00000050: 6714 4810 ae92 4540 6666 6666 6666 eebf
00000060: d8a3 703d 0ad7 efbf fc6f 9a5d 8e40 f1bf
00000070: 87d6 65a7 0a74 7340 9c33 a2b4 37f8 efbf
00000080: fe45 93e2 bb8b 2f40 1aa7 df13 dc96 6740
00000090: 0000 0000 0000 0000 0000 0000 0000 0000
000000a0: 0000 0000 0000 0000 0000 0000 0000 0000
000000b0: 0000 0000 0000 0000 0000 0000 0000 0000
000000c0: 6907 279a 0039 8540 007d fe5a b685 0ac0
000000d0: f8be 34bb 48bf 2640 ddbd 79e5 5aca 7fc0
000000e0: 9202 1b3d 8dd5 6b40 00a3 90b7 049c 4d40
000000f0: b0e0 56f6 e4e4 4d40 23aa d74a ae2c 5a40
00000100: a62d 64e9 0ec8 2540 6666 6666 6666 eebf
00000110: 5f8d 4d38 84b8 5140 c672 0070 57af 6540
00000120: 4f8e 2c53 66cf d23f 0000 0000 0000 0000
00000130: 0000 0000 0000 0000 4adf 396a caa8 6640
00000140: 6666 6666 66de 67c0 72f3 e277 42e2 55c0
00000150: b3f3 3a1b 4180 5a40 3b9e 51fa 2080 5ec0
00000160: 37a0 9f06 72f5 7a40 5442 6379 7317 5d40
00000170: 4a6c ff48 52f4 5c40 0dac 5817 4e5a 5d40
00000180: 625c 608a c33e 5b40 180e 0244 85f9 3840
00000190: 9fce 15a5 84f0 01c0 bd59 75e2 7805 7240
000001a0: 3135 9d78 fe47 52c0 0000 0000 0020 59c0
000001b0: 3a55 7d50 dfa9 56c0 e43b 0aad e005 5340
000001c0: 7a20 a421 6674 5a40 0000 0000 0000 0000
000001d0: 0000 0000 0000 0000 0000 0000 0000 0000
000001e0: 06e9 d4cd 348d 5440 86b2 19d0 27af 1ac0
000001f0: 24f3 2d01 9bde 6640 b042 6a5f 7a30 3c40
00000200: 1010 30a4 75c8 6b40 b378 64e5 919d 5940
00000210: a552 56c2 4849 5240 31b7 7835 7def 5c40
00000220: 6428 f0c6 1f92 68c0 1261 71de eb96 47c0
00000230: a4ed 55b8 31a8 6fc0 dd6d 1b53 2837 68c0
00000240: 0000 0000 0000 0000 0000 0000 0000 0000
00000250: 0000 0000 0000 0000 0000 0000 0000 0000
00000260: 2eee f96c 3714 58c0 3ce8 8664 504d 3340
00000270: 0000 0000 0000 0000 0000 0000 0000 0000
00000280: a2aa 5b0b b351 5240 31b6 ec9b b0b5 5140
00000290: 4aae f316 1066 6340 23c5 0cb6 08e9 5340
000002a0: da41 b4d7 e417 6440 afc1 154b 696f 5440
000002b0: b593 6c9c 8873 4540 f41b 74e9 f250 5840
000002c0: 56c8 3147 bb91 67c0 9a74 fee5 a67e 68c0
000002d0: 6666 6666 66de 67c0 efc8 a2ab 231a 5a40
000002e0: 0000 0000 0000 0000 0000 0000 0000 0000
000002f0: 0000 0000 0000 0000 0000 0000 0000 0000
00000300: 3a91 05f1 e673 58c0 0000 0000 0000 0000
00000310: 0000 0000 0000 0000 0000 0000 0000 0000
