Sem4/SI/lab7/saved_models/FrozenLake/QAgent/run-2025-05-28_10-18-46/model.npy (npy, 928 bytes, 1 tensors)

array f8 [25, 4]
000000 00 00 00 00 00 00 00 00 00 00 00 00 00 00 00 00
       0.0 0.0
000010 00 00 00 00 00 00 00 00 00 00 00 00 00 00 00 00
       0.0 0.0
000020 60 c6 10 66 16 d1 52 40 cc cc cc cc cc cc dc bf
       75.26699210775541 -0.44999999999999996
000030 a7 e8 48 2e ff 21 df bf 52 56 c0 6c 94 16 8e 40
       -0.48645 962.8224730516761
000040 4d a5 a7 c8 fa 74 4c 40 1a 2f dd 24 06 81 eb bf
       56.913903314455276 -0.8594999999999999
000050 59 a0 2f ac f1 02 ec bf c7 59 ca d0 23 b3 87 40
       -0.87535937910162 758.3924880798958
000060 08 3d 9b 55 9f ab ec bf 3a c6 5b 5b be 54 19 40
       -0.89595 6.332757403828106
000070 c7 12 55 53 ba 65 57 40 cc cc cc cc cc cc dc bf
       93.5894974070353 -0.44999999999999996
000080 cc cc cc cc cc cc dc bf 78 c2 c6 a2 e7 55 3c 40
       -0.44999999999999996 28.335565732503227
000090 00 00 00 00 00 00 00 00 00 00 00 00 00 00 00 00
       0.0 0.0
0000a0 00 00 00 00 00 00 00 00 00 00 00 00 00 00 00 00
       0.0 0.0
0000b0 00 00 00 00 00 00 00 00 00 00 00 00 00 00 00 00
       0.0 0.0
0000c0 49 6a 44 85 80 78 7f 40 d1 9b 0d 86 f9 ae 54 c0
       503.5313770935505 -82.7339797146699
0000d0 f0 91 55 db cf ab 2c c0 f0 6c f2 5d 73 53 13 c0
       -14.335570196338239 -4.831494777604561
0000e0 30 38 28 02 38 6b 82 40 0c f3 09 a8 df 40 ef bf
       589.4023478643558 -0.9766691476830558
0000f0 9a 6e ce db ae 55 f2 bf 08 3d 9b 55 9f ab ec bf
       -1.1459187112986116 -0.89595
000100 1a 2f dd 24 06 81 eb bf 08 3d 9b 55 9f ab ec bf
       -0.8594999999999999 -0.89595
000110 82 d4 b3 b6 3e 9d 5f 40 cc cc cc cc cc cc dc bf
       126.45695273934874 -0.44999999999999996
000120 aa 20 ad b2 60 cd 3b 40 da ab da ab b8 58 01 40
       27.80225674368618 2.168320982561892
000130 ab f8 4e 3c 24 ca 07 40 00 00 00 00 00 00 00 00
       2.973701926383986 0.0
000140 fc a9 f1 d2 4d 98 65 c0 a4 8b 28 ce d2 2d 62 c0
       -172.7595 -145.43198306960142
000150 a6 98 49 c4 a8 a8 71 40 c8 51 eb c3 0b b0 65 c0
       282.54120281933353 -173.501436195
000160 a3 27 dc a6 05 d9 7c 40 f8 7c f2 14 fa 39 10 c0
       461.5638798332022 -4.056618048954299
000170 65 02 ef f2 cd f7 1c c0 1c 71 ec 2c 77 2f 44 40
       -7.2419965704326374 40.370824447107424
000180 0a be ed d4 73 16 7e 40 da c4 3e e6 b6 15 0a c0
       481.4032792364893 -3.260602759161526
000190 10 78 46 68 d4 4d 09 c0 cd 3f 17 26 23 08 09 c0
       -3.163002791071456 -3.1289732910008525
0001a0 64 7e 3f 4b 3a ac 4f 40 fc a9 f1 d2 4d 98 65 c0
       63.34552898979453 -172.7595
0001b0 34 cc f3 2a 49 85 64 c0 44 74 cb d5 b3 86 68 c0
       -164.1651816140817 -196.2094525312151
0001c0 82 22 d7 f2 d6 e8 38 40 00 00 00 00 00 00 00 00
       24.909529855273384 0.0
0001d0 00 00 00 00 00 00 00 00 00 00 00 00 00 00 00 00
       0.0 0.0
0001e0 80 36 31 5f d3 e8 30 c0 1d 33 bc 07 c3 3d 31 c0
       -16.90947527839171 -17.24125717491835
0001f0 b8 f7 d1 cb 83 7b 73 40 c6 03 fe 4a 17 80 30 c0
       311.7196767999517 -16.500355422034566
000200 37 aa e3 ac b2 2b 78 40 0d 5e c9 f8 ad ea 29 40
       386.7311219113503 12.958358549672107
000210 d7 a3 d8 cf 20 36 2f 40 e4 b4 50 d5 06 83 57 40
       15.60571908492595 94.04729206925873
000220 b2 e6 65 68 c8 c9 57 c0 8b 21 68 e7 0f 0f 58 c0
       -95.15285692168507 -96.2353456990151
000230 cd cc cc cc cc 9c 56 c0 22 b2 29 89 af 2e 71 40
       -90.45 274.9178554180854
000240 00 00 00 00 00 00 00 00 00 00 00 00 00 00 00 00
       0.0 0.0
000250 00 00 00 00 00 00 00 00 00 00 00 00 00 00 00 00
       0.0 0.0
000260 01 94 dc de 83 6c 52 c0 96 24 a2 2e 1e 2b ed 3f
       -73.69554873982271 0.9115134154136679
000270 00 00 00 00 00 00 00 00 00 00 00 00 00 00 00 00
       0.0 0.0
000280 38 11 d5 4f eb 4e 42 40 ea 89 e9 b3 57 8f 37 40
       36.616556147610424 23.559931988254824
000290 f8 9d b4 28 e8 81 70 40 43 1c a9 23 14 62 4d 40
       264.11917944482366 58.7662396026358
0002a0 ec d9 8f d9 cb e0 73 40 ad 72 4c 8b 11 9d 41 40
       318.04976803008935 35.227097904518224
0002b0 c5 d3 2a 2b 9a a4 33 40 fd 89 35 fd 17 32 29 c0
       19.64297742648684 -12.597839272294545
0002c0 62 ee e6 29 f8 37 59 c0 5e ba 49 0c 02 b7 56 c0
       -100.87452170898317 -90.8595
0002d0 5e ba 49 0c 02 b7 56 c0 64 23 ea fb fc db 61 40
       -90.8595 142.87463184099317
0002e0 00 00 00 00 00 00 00 00 00 00 00 00 00 00 00 00
       0.0 0.0
0002f0 00 00 00 00 00 00 00 00 00 00 00 00 00 00 00 00
       0.0 0.0
000300 00 22 fd f6 75 60 f5 3f 00 00 00 00 00 00 00 00
       1.3360500000000002 0.0
000310 00 00 00 00 00 00 00 00 00 00 00 00 00 00 00 00
       0.0 0.0
