Sem4/SI/lab7/saved_models/FrozenLake/QAgent/run-2025-05-28_10-29-52/model.npy (npy, 928 bytes, 1 tensors)

array f8 [25, 4]
0.0 0.0 0.0 0.0 -0.49875 -0.49875 31.62326387190413 871.6146822610303
-0.49875 -0.49875 39.47295622502263 651.1729100115806 2.6072728298105776 9.87967482074535 194.41134168016805 3.40380416170869
-0.49875 -0.4915390938384105 2.1650044095880254 162.28313889790834 0.0 0.0 0.0 0.0
431.9613273005057 -92.452789152118 -128.52360763037356 -97.98750000000001 543.8094852814278 -1.5337185536992353 -1.4915070055277373 -1.444009154408214
192.19710439658988 -0.03294037617878659 -0.51044746875 -0.5322485892187501 0.8441110245627088 -0.2646526104638417 -0.2383484566155065 185.78250532812683
-143.55246875000003 141.5341503181828 -149.1670723182969 -143.7488336714383 -22.604832768790317 -21.187170087137517 338.4569390567574 -23.827227751315576
418.41615268187866 4.467581317488229 -2.934647839481301 -3.482941321130971 97.41680234400798 -134.59071668487445 -155.3241349165217 -146.45516197047147
138.84929283643794 -9.768490902894836 -8.399027477117158 -8.419281092017446 -43.44863383457386 153.19707409182953 -44.52057220247484 -43.92462089274918
247.71257708685766 -33.53614694819489 -33.99289298373842 -26.445042338587527 -166.33455339638138 -162.5218353423762 -143.77533802265626 177.03605398145334
0.0 0.0 0.0 0.0 -0.16814901637154467 -69.06289076431042 -87.31788691320313 -97.98750000000001
-37.181150463947915 -37.16307400353057 175.71805689076518 -36.912632486466876 202.25787575556723 -38.673357556060154 -39.53475639864046 -39.63335878532238
-204.4603026655723 -179.2955586463106 -186.62484531250004 117.40354750798654 0.0 0.0 0.0 0.0
-46.85543576367394 -52.57226880287584 -51.357972553961176 -50.25
00000000: 0000 0000 0000 0000 0000 0000 0000 0000
00000010: 0000 0000 0000 0000 0000 0000 0000 0000
00000020: ec51 b81e 85eb dfbf ec51 b81e 85eb dfbf
00000030: 489b 9a38 8e9f 3f40 7484 88de ea3c 8b40
00000040: ec51 b81e 85eb dfbf ec51 b81e 85eb dfbf
00000050: b674 5fd4 89bc 4340 1ee7 a41e 6259 8440
00000060: 5449 7edb b1db 0440 906e f4bc 64c2 2340
00000070: b6f9 06b6 294d 6840 5c38 24ad fd3a 0b40
00000080: ec51 b81e 85eb dfbf e373 2f63 6075 dfbf
00000090: c802 f7d4 ed51 0140 bd57 4e79 0f49 6440
000000a0: 0000 0000 0000 0000 0000 0000 0000 0000
000000b0: 0000 0000 0000 0000 0000 0000 0000 0000
000000c0: c846 bc98 61ff 7a40 2515 5a7f fa1c 57c0
000000d0: 7f0c ca64 c110 60c0 3433 3333 337f 58c0
000000e0: 9b52 6bd3 79fe 8040 9481 5677 1c8a f8bf
000000f0: c2f1 2773 36dd f7bf 22ed d457 a91a f7bf
00000100: 0b28 e1ad 4e06 6840 68c8 cf9c 8fdd a0bf
00000110: 726e 13ee 9555 e0bf 662c 8131 2e08 e1bf
00000120: 8e13 961f f502 eb3f 0a91 af80 11f0 d0bf
00000130: 3f9b 1bc5 3382 cebf 0428 9d48 0a39 6740
00000140: fda9 f1d2 adf1 61c0 c877 68c2 17b1 6140
00000150: dee4 0ba8 58a5 62c0 131f 0872 f6f7 61c0
00000160: e880 0152 d69a 36c0 8c0b fb60 ea2f 35c0
00000170: 9c10 549f 4f27 7540 783e aa32 c5d3 37c0
00000180: fcec b68f a826 7a40 8454 0ba3 cdde 1140
00000190: 41cb 7ea5 287a 07c0 0c28 e156 10dd 0bc0
000001a0: 441a bde3 ac5a 5840 9857 ad26 e7d2 60c0
000001b0: 7a3e 3050 5f6a 63c0 da31 d6af 904e 62c0
000001c0: 4ca7 2b68 2d5b 6140 e669 bea3 7789 23c0
000001d0: e0d8 5854 4dcc 20c0 9a17 e402 acd6 20c0
000001e0: d9af 5fd5 6cb9 45c0 7f69 536e 4e26 6340
000001f0: 066b 241c a242 46c0 2dc7 37fa 59f6 45c0
00000200: d87d 766e cdf6 6e40 732c 9476 a0c4 40c0
00000210: cdca 061e 17ff 40c0 9c91 714b ee71 3ac0
00000220: 2907 53a9 b4ca 64c0 e32c 08e0 b250 64c0
00000230: ed54 af91 cff8 61c0 72e7 ad5a 2721 6640
00000240: 0000 0000 0000 0000 0000 0000 0000 0000
00000250: 0000 0000 0000 0000 0000 0000 0000 0000
00000260: 20ce 152f e885 c5bf c2fb fb66 0644 51c0
00000270: 2a02 5a42 58d4 55c0 3433 3333 337f 58c0
00000280: e027 3bf0 2f97 42c0 ecfe e39b df94 42c0
00000290: 20d0 7152 faf6 6540 3a52 2d24 d174 42c0
000002a0: f612 a884 4048 6940 7ce5 9494 3056 43c0
000002b0: 67be cde5 72c4 43c0 05cc 92e6 11d1 43c0
000002c0: a1dc a7cc ba8e 69c0 88fe 6737 7569 66c0
000002d0: e4c7 98bb fe53 67c0 cf4b edb8 d359 5d40
000002e0: 0000 0000 0000 0000 0000 0000 0000 0000
000002f0: 0000 0000 0000 0000 0000 0000 0000 0000
00000300: 7867 4aeb 7e6d 47c0 b86f a81a 4049 4ac0
00000310: 7e10 6e0b d2ad 49c0 0000 0000 0020 49c0
