Sem4/SI/lab7/saved_models/FrozenLake/QAgent/run-2025-05-28_10-23-23/model_best.npy (npy, 928 bytes, 1 tensors)

array f8 [25, 4]
0.0 0.0 0.0 0.0 -1.0 -1.0 -1.0 940.3818270275272
-1.98 -1.98 -1.98 811.8259707831934 -1.98 -1.98 -1.98 470.8945417208301
-1.0 3.1797839815476365 0.0 0.0 0.0 0.0 0.0 0.0
784.3709195109842 -2.1928176 -1.98 -201.0 -2.7640000000000002 259.3072634221388 -2.62 -2.124
248.71706116100935 -2.717243691086468 -2.4400000000000004 -2.3004000000000002 -1.2124000000000001 -1.0 -1.0 55.881720614830414
-201.8 204.066966330141 -202.6992 -201.0 525.5917626791814 -9.293170353828199 -8.283939524792123 -7.35540812681996
228.3168764848261 -3.5810787922584604 -4.01476239016381 -5.2786286649863 65.33539804974603 -201.0 -2.9618358831296265 -202.47758121997117
-1.0 -1.0 -1.0 -1.332455774493506 -16.440364921629513 -15.940506097573572 249.4845645558402 -16.140405031944347
382.76388756259024 -11.524473457243722 -11.410534382228828 -11.988073742669936 -201.0 -205.30962057670345 -201.0 232.69926552486166
0.0 0.0 0.0 0.0 -1.0 0.0 0.0 0.0
-16.94518146846074 -16.885069342407853 185.48235221080256 -17.051815347247956 216.24519582087186 -14.906234053089912 -14.716240404301482 -14.526457449869758
-201.8 -201.8 -201.0 -87.94963620452761 0.0 0.0 0.0 0.0
0.0 0.0 0.0 0.0
00000000: 0000 0000 0000 0000 0000 0000 0000 0000
00000010: 0000 0000 0000 0000 0000 0000 0000 0000
00000020: 0000 0000 0000 f0bf 0000 0000 0000 f0bf
00000030: 0000 0000 0000 f0bf aa1f 54fb 0d63 8d40
00000040: ae47 e17a 14ae ffbf ae47 e17a 14ae ffbf
00000050: ae47 e17a 14ae ffbf 23ea 9196 9b5e 8940
00000060: ae47 e17a 14ae ffbf ae47 e17a 14ae ffbf
00000070: ae47 e17a 14ae ffbf f7bd fa0a 506e 7d40
00000080: 0000 0000 0000 f0bf f0bb 8895 3270 0940
00000090: 0000 0000 0000 0000 0000 0000 0000 0000
000000a0: 0000 0000 0000 0000 0000 0000 0000 0000
000000b0: 0000 0000 0000 0000 0000 0000 0000 0000
000000c0: 0109 a6a4 f782 8840 e5be 30f4 e38a 01c0
000000d0: ae47 e17a 14ae ffbf 0000 0000 0020 69c0
000000e0: ea26 3108 ac1c 06c0 7ed5 0c8d ea34 7040
000000f0: f628 5c8f c2f5 04c0 cba1 45b6 f3fd 00c0
00000100: 8b78 3f2a f216 6f40 64d4 a342 eabc 05c0
00000110: 86eb 51b8 1e85 03c0 49bf 7d1d 3867 02c0
00000120: f6b9 da8a fd65 f3bf 0000 0000 0000 f0bf
00000130: 0000 0000 0000 f0bf ec73 9a38 dcf0 4b40
00000140: 9a99 9999 9939 69c0 71bc 9296 2482 6940
00000150: 9fab add8 5f56 69c0 0000 0000 0020 69c0
00000160: 9f50 12ee bb6c 8040 9eb2 b36c 1a96 22c0
00000170: 430c 7a85 6091 20c0 88b2 a51b f06b 1dc0
00000180: 6366 27da 238a 6c40 b231 49a3 0ca6 0cc0
00000190: 80db 3bdf 1d0f 10c0 9060 2fd5 501d 15c0
000001a0: 4ab3 6129 7755 5040 0000 0000 0020 69c0
000001b0: c749 f102 d7b1 07c0 b81e 6958 484f 69c0
000001c0: 0000 0000 0000 f0bf 0000 0000 0000 f0bf
000001d0: 0000 0000 0000 f0bf 2b0e 6d25 bd51 f5bf
000001e0: 51b4 68c1 bb70 30c0 be88 e503 8ae1 2fc0
000001f0: 4d04 878d 812f 6f40 1265 8c95 f123 30c0
00000200: 5732 2ae2 38ec 7740 b4f6 f4c8 870c 27c0
00000210: de1c 0390 31d2 26c0 7e9b 35cd e4f9 27c0
00000220: 0000 0000 0020 69c0 8563 6969 e8a9 69c0
00000230: 0000 0000 0020 69c0 0910 1862 6016 6d40
00000240: 0000 0000 0000 0000 0000 0000 0000 0000
00000250: 0000 0000 0000 0000 0000 0000 0000 0000
00000260: 0000 0000 0000 f0bf 0000 0000 0000 0000
00000270: 0000 0000 0000 0000 0000 0000 0000 0000
00000280: fad2 a769 f7f1 30c0 7e55 88e7 93e2 30c0
00000290: 9c51 e76d 6f2f 6740 61dc 45c5 430d 31c0
000002a0: 56f8 e7a4 d807 6b40 dd15 e9e8 fdcf 2dc0
000002b0: ed18 f10f b76e 2dc0 33da b3d4 8b0d 2dc0
000002c0: 9a99 9999 9939 69c0 9a99 9999 9939 69c0
000002d0: 0000 0000 0020 69c0 cb62 eed6 c6fc 55c0
000002e0: 0000 0000 0000 0000 0000 0000 0000 0000
000002f0: 0000 0000 0000 0000 0000 0000 0000 0000
00000300: 0000 0000 0000 0000 0000 0000 0000 0000
00000310: 0000 0000 0000 0000 0000 0000 0000 0000
