Sem4/SI/lab7/saved_models/FrozenLake/QAgent/run-2025-05-28_10-34-25/model.npy (npy, 928 bytes, 1 tensors)

array f8 [25, 4]
00000000: 0000 0000 0000 0000 0000 0000 0000 0000
00000010: 0000 0000 0000 0000 0000 0000 0000 0000
00000020: a8c3 6ca5 26ba 4440 0000 0000 0000 d0bf
00000030: 0000 0000 0000 d0bf afcb fa4c 4f10 8c40
00000040: ec51 b81e 85eb dfbf 37ca ca47 b73f 2740
00000050: ec51 b81e 85eb dfbf 0848 3d42 5e3b 8740
00000060: ab39 6f1a 4619 3340 089b d3f0 8d39 6840
00000070: f1f9 f50c d83a 5140 2a16 d140 1a6e 5c40
00000080: 0000 0000 0000 d0bf 0a5a a00c e5a0 2340
00000090: 539b 8d15 28c5 1d40 288b 484b 84e2 6540
000000a0: 0000 0000 0000 0000 0000 0000 0000 0000
000000b0: 0000 0000 0000 0000 0000 0000 0000 0000
000000c0: 278e dc57 ee67 8240 b80f 8a82 5c8e 45c0
000000d0: f059 d035 f742 1ec0 3433 3333 337f 58c0
000000e0: ef92 027e 9065 4140 1641 c5ca e3b2 1440
000000f0: 225a e283 8a13 6d40 6b44 df1b 0521 0540
00000100: a813 05ea 3d05 6740 efa1 698f 5a7e 2840
00000110: 727e d5db a819 3140 a35b 3bd5 80be 3440
00000120: 9dfd 998a 1ea3 6e40 3cc0 1a9a 8d89 1a40
00000130: 0000 0000 0000 0000 0000 0000 0000 0000
00000140: 0d24 287e 346b 6cc0 783a 4dfe 9b04 6040
00000150: 1436 68d8 a9be 6ac0 f2ee 2aec 48a2 6ac0
00000160: 6314 7143 5fd4 7940 0e69 fcf9 a707 4240
00000170: be94 84e9 5d1f 0ac0 7001 ae2c 7c8a dd3f
00000180: 7db6 c73f 01c6 6840 ca3d 2385 6f59 10c0
00000190: 506f 9758 f96d 05c0 b262 4289 03e6 0440
000001a0: a0ec 0c32 579b 5b40 30d9 339c da8a 61c0
000001b0: 3433 3333 337f 58c0 b241 c8d3 2baf 5bc0
000001c0: ab1d c394 57ae 6a40 0000 0000 0000 0000
000001d0: 0000 0000 0000 0000 0000 0000 0000 0000
000001e0: 902c d433 f198 0ac0 04e0 4a02 3b2f 0fc0
000001f0: 3085 8370 0773 6d40 8e0d 6cf2 5ec3 2cc0
00000200: f887 31cf a264 7340 1087 017c f152 1240
00000210: 3850 4c53 9b88 e1bf 7156 6408 293e 4140
00000220: 38b2 98ac a9ff 5cc0 a32c cedf 9521 61c0
00000230: b91e 85eb d1ea 61c0 c082 5e36 952b 6140
00000240: 0000 0000 0000 0000 0000 0000 0000 0000
00000250: 0000 0000 0000 0000 0000 0000 0000 0000
00000260: 7030 3ad1 f26b 45c0 90e6 9d7a 7869 3fc0
00000270: f81a c2ae 0f68 50c0 0000 0000 0020 49c0
00000280: faab 9c9f 47ef 6740 5c3e de01 bab3 12c0
00000290: 50de cf9d 6c3b 2ac0 a0ca 0c85 5415 fbbf
000002a0: 9831 fd06 14c1 6f40 4ff6 2134 213b 31c0
000002b0: f7ce d066 4712 33c0 301d 5877 7cfa 2fc0
000002c0: a427 2d87 5496 60c0 46f2 70a9 c924 5fc0
000002d0: 3433 3333 337f 58c0 bc5f a52f 60c4 5740
000002e0: 0000 0000 0000 0000 0000 0000 0000 0000
000002f0: 0000 0000 0000 0000 0000 0000 0000 0000
00000300: 5983 7eb5 d6a3 2440 0000 0000 0000 d0bf
00000310: 0000 0000 0000 d0bf 0000 0000 0020 49c0
0.0 0.0 0.0 0.0 41.45430438814884 -0.25 -0.25 898.0387210458192
-0.49875 11.62444519377196 -0.49875 743.4210247790916 19.09872594085179 193.7985767491266 68.91943668385626 113.72035236757861
-0.25 9.814247507642921 7.442535721557607 175.0786491791598 0.0 0.0 0.0 0.0
588.991378520096 -43.11219817868499 -7.5653961571137955 -97.98750000000001 34.79347205281908 5.174697082795566 232.61065859040633 2.6411230256567726
184.16380787841376 12.246784669537162 17.100232829687634 20.74415333460969 245.09747819973282 6.634329231150385 0.0 0.0
-227.35015781250004 128.14404215892478 -213.95823307374724 -213.071401676039 413.27325767680867 36.05981373619771 -3.2653158420167463 0.4615774570775306
198.18765248304763 -4.0873394778022405 -2.678698246117996 2.6123114322075134 110.42719699155941 -140.33918581129683 -97.98750000000001 -110.73705000454245
213.44819105251858 0.0 0.0 0.0 -3.3246788071751965 -3.898061769399648 235.5946581429248 -14.381583762826974
310.2897483763513 4.580999314873921 -0.5479256274143216 34.485627221100806 -115.99473109161124 -137.04954519527845 -143.33812500000002 137.36196440180902
0.0 0.0 0.0 0.0 -42.84334769574423 -31.41199461321827 -65.6259571929512 -50.25
191.4774931011196 -4.675514249028847 -13.116063052773058 -1.6927075574173287 254.033694738883 -17.23097539738802 -19.071402002314212 -15.98923085165606
-132.6978183633738 -124.57480846433563 -97.98750000000001 95.06837073468972 0.0 0.0 0.0 0.0
10.3199974743781 -0.25 -0.25 -50.25
