Sem4/SI/lab7/saved_models/FrozenLake/QAgent/run-2025-05-28_10-12-15/model_best.npy (npy, 928 bytes, 1 tensors)

array f8 [25, 4]
000000 00 00 00 00 00 00 00 00 00 00 00 00 00 00 00 00
       0.0 0.0
000010 00 00 00 00 00 00 00 00 00 00 00 00 00 00 00 00
       0.0 0.0
000020 00 00 00 00 00 00 d0 bf b8 1e 85 eb 51 b8 d0 bf
       -0.25 -0.26125
000030 b8 1e 85 eb 51 b8 d0 bf a3 76 c8 a9 2c 98 8b 40
       -0.26125 883.0218082104878
000040 ec 51 b8 1e 85 eb df bf ec 51 b8 1e 85 eb df bf
       -0.49875 -0.49875
000050 ec 51 b8 1e 85 eb df bf dd 1c 20 26 59 6d 87 40
       -0.49875 749.6685297497567
000060 00 00 00 00 00 00 d0 bf 00 00 00 00 00 00 d0 bf
       -0.25 -0.25
000070 61 25 27 bd d0 15 60 40 b8 1e 85 eb 51 b8 d0 bf
       128.68173082013803 -0.26125
000080 00 00 00 00 00 00 d0 bf 89 b2 53 d4 09 3d 47 40
       -0.25 46.47686246954715
000090 00 00 00 00 00 00 00 00 00 00 00 00 00 00 00 00
       0.0 0.0
0000a0 00 00 00 00 00 00 00 00 00 00 00 00 00 00 00 00
       0.0 0.0
0000b0 00 00 00 00 00 00 00 00 00 00 00 00 00 00 00 00
       0.0 0.0
0000c0 44 8f 7f 14 3b e1 7d 40 f6 5c 9c 1a 4a 92 4a c0
       478.076923845558 -53.142886473035034
0000d0 47 8b 12 a6 ce 8f 49 c0 00 00 00 00 00 20 49 c0
       -51.12349391847106 -50.25
0000e0 71 a8 da 36 5c 72 83 40 ec 51 b8 1e 85 eb df bf
       622.295026500955 -0.49875
0000f0 ae 47 e1 7a 14 2e e7 bf ce aa cf d5 56 4c e4 bf
       -0.724375 -0.63431875
000100 58 07 16 dc cc d1 df bf 21 08 9a e1 32 2b dc bf
       -0.49718019001749303 -0.4401366427556486
000110 c0 7e 32 2b 5a c8 54 40 cc 2e 37 d7 aa 29 d4 bf
       83.13050346308864 -0.31504317299980467
000120 0e f9 da e0 2e e0 51 40 00 00 00 00 00 00 00 00
       71.5028612268836 0.0
000130 00 00 00 00 00 00 00 00 00 00 00 00 00 00 00 00
       0.0 0.0
000140 fe 19 94 1f f9 7e 58 c0 a0 b9 5b d6 2e 6c 5c c0
       -97.9839552828125 -113.69035872418908
000150 40 60 2d 1e 63 fc 6d 40 50 3a 82 8f 78 62 59 c0
       239.8870993505716 -101.53860843389089
000160 20 39 04 df 2b 82 18 c0 80 17 da 16 55 73 13 c0
       -6.1271204801871875 -4.862629277287738
000170 c5 4a 2f 9b 03 4c 77 40 f5 4b 81 ea 96 33 13 c0
       372.7508804175707 -4.800380386487622
000180 9b 50 4f 68 b8 94 7b 40 d4 2c 8b 2f 44 b8 fa bf
       441.2950213525998 -1.669986901967424
000190 50 91 07 85 aa e2 fa bf 74 e4 1f 6a c7 9b f8 bf
       -1.6803384014575222 -1.538031973408832
0001a0 2a 26 7d 49 f7 69 4f c0 34 33 33 33 33 7f 58 c0
       -62.82785910235209 -97.98750000000001
0001b0 27 f5 73 9d df 80 49 c0 48 de 3f 4a 33 ce 6f 40
       -51.00682418977731 254.44376099085116
0001c0 3c ff 22 0a 21 83 50 40 00 00 00 00 00 00 00 00
       66.04889157693555 0.0
0001d0 00 00 00 00 00 00 00 00 00 00 00 00 00 00 00 00
       0.0 0.0
0001e0 00 ec 47 a9 97 8f 36 c0 28 7a dc c0 03 f8 36 c0
       -22.56090791707902 -22.968807271792826
0001f0 14 06 c2 18 f2 4e 70 40 8a be 3b 60 13 b6 35 c0
       260.93410564222836 -21.711233152948388
000200 62 bc 16 ff d2 99 73 40 a5 cb b5 75 68 c0 2a c0
       313.6140128028984 -13.37579696506675
000210 dd 84 9a 34 9c 43 2b c0 c1 fd 47 ec 3a 49 2a c0
       -13.632051128256018 -13.143027671611778
000220 b5 10 22 94 13 5e 6e 40 89 a0 27 07 29 95 4b c0
       242.9398899712884 -55.165314573620954
000230 9a 46 93 8b 45 9d 58 c0 1c 09 4f 2b 58 a3 54 c0
       -98.45736970312501 -82.55225641935652
000240 00 00 00 00 00 00 00 00 00 00 00 00 00 00 00 00
       0.0 0.0
000250 00 00 00 00 00 00 00 00 00 00 00 00 00 00 00 00
       0.0 0.0
000260 68 77 8f cc af 07 1d 40 00 00 00 00 00 00 00 00
       7.257506557709213 0.0
000270 00 00 00 00 00 00 00 00 00 00 00 00 00 00 00 00
       0.0 0.0
000280 b5 69 f4 09 0c 62 6c 40 5a cb 82 fc 23 57 37 c0
       227.06396959053896 -23.3403928584406
000290 ae 2b 35 60 71 7c 37 c0 8d b4 02 e5 5d 4a 37 c0
       -23.48610497758971 -23.290495217476337
0002a0 0a e4 97 54 9f 19 6f 40 2a 5e f3 b4 99 89 3d c0
       248.8006995169274 -29.53750163022611
0002b0 e4 c5 07 1c c1 10 3c c0 4d 39 72 18 50 97 3c c0
       -28.06544661702891 -28.591065910231283
0002c0 f8 0e d8 c4 7a 57 5f c0 9a 20 cd f8 2f aa 61 c0
       -125.36686822032414 -141.3183559423822
0002d0 9e 45 61 12 d5 cd 61 c0 86 1a 07 8d 31 1e 51 40
       -142.43225974081446 68.47177434629165
0002e0 00 00 00 00 00 00 00 00 00 00 00 00 00 00 00 00
       0.0 0.0
0002f0 00 00 00 00 00 00 00 00 00 00 00 00 00 00 00 00
       0.0 0.0
000300 00 00 00 00 00 00 00 00 00 00 00 00 00 00 00 00
       0.0 0.0
000310 00 00 00 00 00 00 00 00 00 00 00 00 00 00 00 00
       0.0 0.0
