Sem4/SI/lab7/saved_models/FrozenLake/QAgent/run-2025-05-28_10-34-52/model.npy (npy, 928 bytes, 1 tensors)

array f8 [25, 4]
00000000: 0000 0000 0000 0000 0000 0000 0000 0000
00000010: 0000 0000 0000 0000 0000 0000 0000 0000
00000020: eb50 f710 9ccd 5340 78da ca19 812d 3740
00000030: ec51 b81e 85eb dfbf 0779 5676 69f9 8b40
00000040: f610 91c6 daf4 7240 cb51 39bc 3be5 2340
00000050: ec51 b81e 85eb dfbf 5396 218e 7551 e0bf
00000060: ec51 b81e 85eb dfbf 3433 3333 3333 dfbf
00000070: ef98 08c1 e5e4 3040 8f61 f38e d24d 7040
00000080: 0000 0000 0000 d0bf 7610 427e c0f6 5b40
00000090: 0000 0000 0000 0000 0000 0000 0000 0000
000000a0: 0000 0000 0000 0000 0000 0000 0000 0000
000000b0: 0000 0000 0000 0000 0000 0000 0000 0000
000000c0: ed4a 8e8f 5ac0 7f40 a1ba 7142 0740 3440
000000d0: 7965 f345 ce68 e1bf f437 a110 2141 49c0
000000e0: 5b1e 6775 badd 2c40 ee94 2642 3148 7340
000000f0: 5a64 3bdf 4f4d e0bf 398e a0f5 a518 4040
00000100: d8f8 d70c e3df d8bf 3433 3333 3333 dfbf
00000110: 329b 8ddc 322a 6140 cb55 b22e 5fec d6bf
00000120: cd7d afc6 a5d9 5c40 0000 0000 0000 0000
00000130: 0000 0000 0000 0000 0000 0000 0000 0000
00000140: 3433 3333 337f 58c0 9d54 6038 6a9a 6940
00000150: 2738 1313 9146 4ac0 f43d d866 9a23 58c0
00000160: 734e 9c3c 77b1 7840 4a32 e18c 9ea8 02c0
00000170: b474 fb87 f37f 5340 0e90 22e3 add4 fbbf
00000180: 9fe6 a2d7 2108 2640 1ebb 6412 4932 f9bf
00000190: 24f8 33d2 8a72 f8bf 6a3a a6fb 20e7 7540
000001a0: 3433 3333 3333 dfbf 0000 0000 0020 49c0
000001b0: d637 e6a3 d2d3 dcbf dda4 cd33 3164 6f40
000001c0: f5c6 aac0 f8b3 5640 0000 0000 0000 0000
000001d0: 0000 0000 0000 0000 0000 0000 0000 0000
000001e0: 0009 8d83 569f 0640 813d 5a82 3852 1bc0
000001f0: 6eff 69b1 8629 7140 edc5 aa3d 2133 1bc0
00000200: badc 1d7f 0405 7440 266b 3e14 42c8 3c40
00000210: 21b1 8686 aef7 3b40 4636 eda3 ab5a 09c0
00000220: 5e76 5b3a 0408 4ac0 6523 23f1 a261 2ac0
00000230: bc44 f5d6 fcf1 61c0 be51 0038 692e 6940
00000240: 0000 0000 0000 0000 0000 0000 0000 0000
00000250: 0000 0000 0000 0000 0000 0000 0000 0000
00000260: 0000 0000 0020 49c0 0000 0000 0000 d0bf
00000270: 0000 0000 0020 49c0 263a ff3d 2de7 47c0
00000280: 16b0 b28a 1958 2840 b0cc 1754 a0c5 3540
00000290: 7a13 cd1c a4a1 6d40 ca00 ef73 ab65 21c0
000002a0: 3e19 d524 2408 7140 7528 1b57 8433 3d40
000002b0: aee6 b6bd 893f 2a40 72df 127b 0122 1b40
000002c0: 9922 096f d24d 52c0 d6cd 4cbc 666d 57c0
000002d0: 723d 0ad7 a38d 58c0 4047 adf4 ef91 5340
000002e0: 0000 0000 0000 0000 0000 0000 0000 0000
000002f0: 0000 0000 0000 0000 0000 0000 0000 0000
00000300: 0000 0000 0000 0000 0000 0000 0000 0000
00000310: 0000 0000 0000 0000 0000 0000 0000 0000
0.0 0.0 0.0 0.0 79.21265052940332 23.177751171135668 -0.49875 895.176495242661
303.30341202417856 9.947721368786821 -0.49875 -0.50994375 -0.49875 -0.48750000000000004 16.89413076839349 260.86390585966814
-0.25 111.85549885226814 0.0 0.0 0.0 0.0 0.0 0.0
508.0221095617588 20.250110771909593 -0.5440436712480469 -50.5088215625 14.433063191259114 308.5120259768581 -0.5094375 32.19256468143107
-0.3886649728227787 -0.48750000000000004 137.31870868356197 -0.3581769901296325 115.40074317109902 0.0 0.0 0.0
-97.98750000000001 204.82546633543544 -52.55130232275433 -96.55629893414863 395.09161053712086 -2.332333660719347 77.99923896366346 -1.7394236443005897
11.015883196483001 -1.574776717996151 -1.5279644213728796 350.44555249150164 -0.48750000000000004 -50.25 -0.4504286385134696 251.13100614704936
90.81205765416583 0.0 0.0 0.0 2.8278017308631433 -6.830293690450504 274.5953840389765 -6.799931491420904
320.3135977903836 28.78225828670397 27.96750679767968 -3.1692726904646262 -52.06262902704178 -13.19069627336439 -143.56211421875003 201.4503440862881
0.0 0.0 0.0 0.0 -50.25 -0.25 -50.25 -47.80606818163169
12.172069868385773 21.771977668581428 237.0512832646744 -8.698573706555539 272.50882418862955 29.20123810208357 13.124097755982202 6.783208773638636
-73.21596885578255 -93.70939548015971 -98.21312500000002 78.28027073785506 0.0 0.0 0.0 0.0
0.0 0.0 0.0 0.0
