Sem4/SI/lab7/saved_models/FrozenLake/QAgent/run-2025-05-28_10-28-48/model_best.npy (npy, 928 bytes, 1 tensors)

array f8 [25, 4]
00000000: 0000 0000 0000 0000 0000 0000 0000 0000
00000010: 0000 0000 0000 0000 0000 0000 0000 0000
00000020: a31c add9 4354 8740 38ae f636 ec9f 5940
00000030: 3443 0759 34cd 1ec0 1c24 041d afc1 1bc0
00000040: 0000 0000 0000 e0bf 713d 0ad7 a370 e1bf
00000050: 0000 0000 0000 e0bf a152 10b6 e13d 7f40
00000060: 0000 0000 0000 e0bf 5932 e526 7f9f 6d40
00000070: 0000 0000 0000 0000 0000 0000 0000 0000
00000080: d8a3 703d 0ad7 efbf c609 db9c 09de 6140
00000090: 0000 0000 0000 e0bf a074 9280 1483 0940
000000a0: 0000 0000 0000 0000 0000 0000 0000 0000
000000b0: 0000 0000 0000 0000 0000 0000 0000 0000
000000c0: 3267 eb3e b607 6cc0 bd39 a388 c70b 64c0
000000d0: 8bcb f753 770c 7340 3450 39a6 9473 67c0
000000e0: 9028 8801 1433 7740 b037 be28 862b f5bf
000000f0: 8c43 0daa 4f2d efbf 5e46 57af d4c5 f3bf
00000100: 0000 0000 0000 e0bf 0000 0000 0000 e0bf
00000110: c470 512e b1c3 1bc0 860d 7c7e 7a67 6a40
00000120: 50e3 c23d 4b3f 6540 0000 0000 0000 0000
00000130: 0000 0000 0000 0000 0000 0000 0000 0000
00000140: 48e1 7a14 ae05 71c0 fddc 48e2 8c4d 3840
00000150: 7d48 2fdd 7639 6cc0 044b cfee 0049 6ec0
00000160: 5cbf 05a4 6a5d 3ac0 b6b1 44af 14ae 3bc0
00000170: 09a6 8aad 908b 6740 2ff2 9a3d e31a 41c0
00000180: eefc 3f5a 1953 7040 3898 2c6e dadd 31c0
00000190: c070 cff0 03db 34c0 3015 56a9 9f3b 37c0
000001a0: a4a9 0798 b124 4d40 d03d 5c94 65c8 6ec0
000001b0: e9c8 5dd8 e306 6bc0 e843 53cd 292f 6ac0
000001c0: 03a4 c2e9 4efe 5840 6666 6666 6666 eebf
000001d0: d8a3 703d 0ad7 efbf 3cae 01e7 1819 febf
000001e0: c417 688a f650 51c0 d3e1 cf29 d4b1 4a40
000001f0: 79f6 4f33 cf5b 50c0 4a15 92c0 236c 50c0
00000200: aed2 53f8 0d48 5e40 ce17 3e5d 9c3e 4ac0
00000210: f837 024a e9cd 4ac0 f473 96fc f5ea 49c0
00000220: eb45 f354 be17 51c0 2b84 8c18 92d4 6fc0
00000230: 8e97 6e12 830b 71c0 4811 9794 a2cd 6ec0
00000240: 0000 0000 0000 0000 0000 0000 0000 0000
00000250: 0000 0000 0000 0000 0000 0000 0000 0000
00000260: 90c2 f528 5ceb 67c0 19e0 dabf 1dee 54c0
00000270: 2bce b598 5687 61c0 6666 6666 66de 67c0
00000280: 1db5 5c03 4aa9 49c0 6b3b 8c8a 307b 49c0
00000290: 06de 4181 6e42 4b40 ddd0 b7ce 895e 49c0
000002a0: be50 a16d 12e6 5440 2d96 e31c f8fb 4cc0
000002b0: 1d2b aed3 5e7e 4cc0 407f 2d59 e076 4cc0
000002c0: 1393 4e08 b2d4 6dc0 e677 69a4 a014 6cc0
000002d0: 48e1 7a14 ae05 71c0 1e7f 6b94 5cab 38c0
000002e0: 0000 0000 0000 0000 0000 0000 0000 0000
000002f0: 0000 0000 0000 0000 0000 0000 0000 0000
00000300: acba 838f 4ee2 63c0 c66e 0f0b 11ca 67c0
00000310: 908a dfe8 2557 5bc0 193e 22a6 c47e 67c0
0.0 0.0 0.0 0.0 746.5331300281872 102.49879240121743 -7.700395003383893 -6.9391445668962
-0.5 -0.545 -0.5 499.86760527015764 -0.5 236.98427147641158 0.0 0.0
-0.9950000000000001 142.93867342739958 -0.5 3.1890039486593906 0.0 0.0 0.0 0.0
-224.24099679925126 -160.36810714607228 304.7791328124519 -187.6118956679726 371.19238427340406 -1.3231259910130397 -0.9742811509441807 -1.235798535275897
-0.5 -0.5 -6.941105579109891 211.23370289067333 169.97793472351123 0.0 0.0 0.0
-272.355 24.302930968083263 -225.7957597659587 -242.281363873357 -26.36490845814056 -27.680003122588197 188.36141087608146 -34.210059834153405
261.1936895846874 -17.86661423290954 -20.855528879780422 -23.23290499068861 58.28666973470834 -246.262399845275 -216.21531313245148 -209.47385278952356
99.97356647498968 -0.95 -0.9950000000000001 -1.8811272643751087 -69.26504764714542 53.38928721094603 -65.43452151116243 -65.68968214288648
121.12585266290509 -52.48914685756573 -53.60868191822368 -51.8356319174417 -68.37099193341389 -254.64283397144877 -272.71950000000004 -246.42609624390957
0.0 0.0 0.0 0.0 -191.35500000000002 -83.72056576132344 -140.2293208647619 -190.95
-51.3225712015794 -50.96241885993262 54.518997342263944 -50.73858055091271 83.5948747706743 -57.96850930321339 -56.98726888660733 -56.928721568312994
-238.6467324766787 -224.64460964774406 -272.355 -24.669381405109668 0.0 0.0 0.0 0.0
-159.07208991745335 -190.3145804692669 -109.36168882208062 -187.96150500000002
