Sem4/SI/lab7/saved_models/FrozenLake/QAgent/run-2025-05-28_10-05-15/model_best.npy (npy, 928 bytes, 1 tensors)

array f8 [25, 4]
0	0x0000000000000000	0.0
1	0x0000000000000000	0.0
2	0x0000000000000000	0.0
3	0x0000000000000000	0.0
4	0xbfd0000000000000	-0.25
5	0xbfd0000000000000	-0.25
6	0xbfd0000000000000	-0.25
7	0x40871aa86db475b4	739.3322404955311
8	0xbfd0000000000000	-0.25
9	0xbfd0000000000000	-0.25
10	0x4041e042680f10d1	35.75202656493787
11	0x0000000000000000	0.0
12	0x40343554d06f9560	20.20832541202742
13	0x3f886df0ef61af80	0.011928446107240864
14	0x0000000000000000	0.0
15	0x402941962b152e3a	12.628098818145293
16	0xbfdfeb851eb851ec	-0.49875
17	0xbfdf333333333334	-0.48750000000000004
18	0xbfdfeb851eb851ec	-0.49875
19	0x4023feaf3ee6e337	9.997430768665806
20	0x0000000000000000	0.0
21	0x0000000000000000	0.0
22	0x0000000000000000	0.0
23	0x0000000000000000	0.0
24	0x407464adf3c10eda	326.29246879018103
25	0x3fee094f1d123033	0.9386363570970445
26	0xbfe051758e219653	-0.50994375
27	0xc0493fc49ba5e354	-50.4981875
28	0xbfe636b4c7070f1b	-0.6941779982812223
29	0xbfec86b15e544e43	-0.8914419977540508
30	0xbfe6c3b617f03f7d	-0.7113905398891657
31	0x404193d780e2c8a8	35.15501414369038
32	0x401f3d41878e4606	7.809820287760436
33	0xbfd0000000000000	-0.25
34	0xbfd0b851eb851eb8	-0.26125
35	0xbfd0000000000000	-0.25
36	0xbfdfeb851eb851ec	-0.49875
37	0xbfe6d1eb851eb852	-0.713125
38	0xbfdfeb851eb851ec	-0.49875
39	0xbfdf67269e75ae77	-0.49067082857684546
40	0xc0587f3333333334	-97.98750000000001
41	0xc032f2e3d0f77473	-18.94878870049838
42	0xc0497815810624de	-50.938156250000006
43	0xc056574e7a8198ad	-89.3641649499502
44	0x406043ae06565cc8	130.1149932562605
45	0xbffbd9090d331a10	-1.7404871478662507
46	0xbff72205677dbd9b	-1.44580593515625
47	0xc0088d0179ef114f	-3.0688504720766683
48	0xbffff9f23c50c587	-1.9985220295023696
49	0xc0011a585f46c9b2	-2.1378638690450424
50	0xc00023352cfbad57	-2.0171912683778532
51	0x402af54a138ef51d	13.479080783081878
52	0xc0496c05f2e8b32c	-50.84393154489803
53	0xc049200000000000	-50.25
54	0xbff84214e6262516	-1.5161332121081776
55	0xbff8e483f5e4419c	-1.5557899098531385
56	0xbfe04d4fdf3b645a	-0.5094375
57	0x3fdd1827e7a747d7	0.45459935781866306
58	0xbfd0b851eb851eb8	-0.26125
59	0xbfd03227fc830b4a	-0.2530612913071094
60	0xc0244ee31667cd29	-10.15407629029376
61	0xc0220b7499e5f0c7	-9.022373971289552
62	0x4022cce6b2b861fc	9.40019758702055
63	0xc022a8d4ac01ab0a	-9.32974755783427
64	0x4047cf8c265ee7be	47.6214645350842
65	0xc00a0ca9662885f7	-3.2561824780575495
66	0xc009ebbe91a0a723	-3.240109575000035
67	0xc00d7b600386b654	-3.6852417254911334
68	0xc04a808761fc6cc6	-53.004131553892464
69	0xc0497c39f4c011d8	-50.9705186784592
70	0xc049200000000000	-50.25
71	0x3ffd001e8391c58d	1.8125291003637785
72	0x0000000000000000	0.0
73	0x0000000000000000	0.0
74	0x0000000000000000	0.0
75	0x0000000000000000	0.0
76	0xc046c9d8fbed2d6e	-45.57693432885104
77	0xc043d996501e2586	-39.69989968750001
78	0x0000000000000000	0.0
79	0x0000000000000000	0.0
80	0xc01ed49cf9d96dd1	-7.7076300658186065
81	0xc02501ebc944881d	-10.503752030959783
82	0xc025192ff9674242	-10.549194139342152
83	0xc025224dba827b84	-10.56699927180103
84	0xc0242c8266bd9271	-10.086932383195036
85	0xc024397537fd66f6	-10.112222432787785
86	0xc0264a2689ee7780	-11.144825277671544
87	0xc02442d413242907	-10.130524252094359
88	0xc0432eb87ddb2c72	-38.36500523759686
89	0xc04a82eb18bbd25d	-53.02279957934363
90	0xc0588e236af89c5e	-98.220911734375
91	0xc04b182b4e917973	-54.18882162192576
92	0x0000000000000000	0.0
93	0x0000000000000000	0.0
94	0x0000000000000000	0.0
95	0x0000000000000000	0.0
96	0xbfd0000000000000	-0.25
97	0xc049200000000000	-50.25
98	0xbfd0000000000000	-0.25
99	0xc048fb5e353f7ced	-49.963812499999996
