Sem4/SI/lab7/saved_models/FrozenLake/QAgent/run-2025-05-28_10-19-13/model_best.npy (npy, 928 bytes, 1 tensors)

array f8 [25, 4]
0	0x0000000000000000	0.0
1	0x0000000000000000	0.0
2	0x0000000000000000	0.0
3	0x0000000000000000	0.0
4	0x4061800b3f3b945c	140.001372925154
5	0x40385c069114a304	24.359475200212742
6	0xbfdf5649b706a688	-0.48964159845
7	0x408cf99be1091c68	927.2011128150743
8	0xbfecab9f559b3d08	-0.89595
9	0xbfee03740fd8a964	-0.93792155356395
10	0xbfe75f4b70a6ee3b	-0.7303826523052018
11	0x4085f9ca7c89543e	703.2238703469118
12	0xbfdccccccccccccc	-0.44999999999999996
13	0xbfdccccccccccccc	-0.44999999999999996
14	0x4053398fca91b079	76.8994013235805
15	0x0000000000000000	0.0
16	0x3ffc11ad43ef388a	1.75431562935731
17	0x40432de010a64cc0	38.358400422288014
18	0x400c339da6dc1ad4	3.5252030406876234
19	0x3ffe043774f1dab7	1.876029450240521
20	0x0000000000000000	0.0
21	0x0000000000000000	0.0
22	0x0000000000000000	0.0
23	0x0000000000000000	0.0
24	0x4087e86023c19e65	765.0469431997741
25	0xc023b80a1e50bd20	-9.859452197414214
26	0xc065ce9d0ab738a4	-174.45667014871026
27	0xc0569ccccccccccd	-90.45
28	0x405b2a195ca970c2	108.65779797121925
29	0x4050c33140f32a3b	67.04988120791033
30	0x400ee72eb8be9b08	3.862882083241292
31	0x4080a509ad12bcfc	532.6297246421741
32	0xbfdccccccccccccc	-0.44999999999999996
33	0xbfdccccccccccccc	-0.44999999999999996
34	0x404eac68b64bd4bb	61.34694555952725
35	0x0000000000000000	0.0
36	0x4045e23b2fdb7092	43.76743124213057
37	0xbfd4a49ab27ff33c	-0.3225466483270798
38	0xbfdccccccccccccc	-0.44999999999999996
39	0x4005c0693b88c3b2	2.7189507151710695
40	0xc065984dd2f1a9fc	-172.7595
41	0x405d81cd5414a780	118.02815725342771
42	0xc0579251adc2b549	-94.28623527540653
43	0xc057e2181206268f	-95.53271914101263
44	0xc02ef6dbe0e2494a	-15.48214628946575
45	0x4023e585624858ae	9.94828326352248
46	0x4072820bcb1ed2f4	296.1278792575897
47	0x400c2e42f1c1f950	3.5225886237450723
48	0x40763ea4aa094165	355.915201221613
49	0xc001af6852b941c8	-2.2106481993471085
50	0x3ff9d78a6eb4cf38	1.6151222538437207
51	0xc0231fe9edcf2e1b	-9.562331611195125
52	0xc062f555c6f2da7a	-151.66672084266958
53	0xc065984dd2f1a9fc	-172.7595
54	0xc067d1cdeed537a2	-190.55638829845435
55	0x4064e5d388927c74	167.18207195864272
56	0x40466aa10a8a8a5d	44.83303958668396
57	0xc01ee02580a9a600	-7.7188930610223
58	0xc01ec0c0594f51da	-7.688233752695362
59	0xc02064c5dd94bf1f	-8.196822094352283
60	0xc020ab4a6bfdb866	-8.334552168580739
61	0x40443ab9d4d8ee80	40.45879612533918
62	0x4064186c0cb88b97	160.76318965953826
63	0xbff30bab2bd8a7d0	-1.190348788523341
64	0x406a1267ddbde22d	208.57517897688504
65	0x4032d4f8fe7b7ca0	18.831924348018788
66	0x4042be048ceebac8	37.48451387078018
67	0xc02f38b4fa75547d	-15.610755755255235
68	0xc065a1145ef68be8	-173.03373668817153
69	0xc061d950b4a787cd	-142.7911017677383
70	0xc065984dd2f1a9fc	-172.7595
71	0x4055f5c57eb3f5a0	87.84017913412254
72	0x0000000000000000	0.0
73	0x0000000000000000	0.0
74	0x0000000000000000	0.0
75	0x0000000000000000	0.0
76	0xc06148394493d7ed	-138.25699070811916
77	0xc06401b011f85b5f	-160.0527429438325
78	0xc05db72d86637156	-118.8621536227341
79	0xc0621fc4520f75c3	-144.99271491069348
80	0x406128657bf31042	137.26238820527402
81	0x4023e73f814a2f39	9.951656379991265
82	0x4019026935f49b3c	6.252354472212399
83	0x401a594769973a1c	6.587186479430354
84	0x406594eb74288962	172.65374191205325
85	0xc03bfd5ed4c0a3d4	-27.98972825720905
86	0xc025fb7a32bbd0b4	-10.991166673113504
87	0xc03aa035a8b9d56b	-26.625818772668406
88	0xc0635bc60ab5ab9e	-154.86792502863403
89	0xc06312f1aad7e56a	-152.5920004097673
90	0xc065a550a11a8fc6	-173.16609244525733
91	0x4042c76fcf5ee08b	37.558099671675414
92	0x0000000000000000	0.0
93	0x0000000000000000	0.0
94	0x0000000000000000	0.0
95	0x0000000000000000	0.0
96	0xc02b09e8b16974bf	-13.519353431819011
97	0xc0569ccccccccccd	-90.45
98	0xc058acd8e5101417	-98.70073820657886
99	0xc0569ccccccccccd	-90.45
