Sem4/SI/lab6/my_model.pkl (torch, 12949 bytes, 9 tensors)

layers.0.weight f4 [16, 2]
00000000: 1f02 263f fbc1 84c0 bac5 a7be 34e3 cc3f
00000010: 2689 3bc0 1e20 983e 6001 0241 8545 a33f
00000020: c544 ccc0 7d00 1a40 1100 d63f 95dc b440
00000030: 56e4 d7c0 f654 fabf b92e 5bbf f96d a8bf
00000040: a521 6840 7a3b dbc0 db61 723d 4cb9 00bc
00000050: 1869 5ebf 9072 b340 55f9 ee3e e610 25be
00000060: 6a3c 07c0 e343 be40 bb1f bd3e 9446 173f
00000070: aa9c e5be 1679 853d 9318 573f 249e 1340
0.64846987 -4.1486793 -0.3276804 1.6006837 -2.9302459 0.29712003 8.125336 1.2755591
-6.3833947 2.4062798 1.671877 5.6519265 -6.746623 -1.9557178 -0.8561817 -1.3158561
3.6270535 -6.8510103 0.059175353 -0.007856678 -0.8687911 5.6077347 0.466746 -0.16119727
-2.1130624 5.945787 0.3693827 0.5909207 -0.44846088 0.06517236 0.8402187 2.3065271

layers.0.bias f4 [16]
00000000: 3b24 c6bd 1774 633f f753 6e3f fa45 41c0
00000010: c97b 24c0 c3d1 41c0 877a acbf e4b0 343f
00000020: 3615 4ec0 2c6c e2be 75fb 03bf d236 27bf
00000030: d0db 2ec0 d475 23bf d69f e9be ce45 d33f
-0.09674879 0.88849014 0.9309687 -3.019896 -2.5700552 -3.0284278 -1.3474892 0.70582414
-3.2200446 -0.44223154 -0.5155557 -0.65318024 -2.7321663 -0.63851666 -0.45629758 1.6505678

layers.1.weight f4 [32, 16]
00000000: 6ef7 5f3f 4e46 7dbf 809e 713e cddf 663e
00000010: 5e1e 973d 261f 36be 848f 863e 91b8 0a3f
00000020: 8b30 51bc a660 7dbe 58c7 74bd 0080 01ba
00000030: 7af2 f6bd 603e 18bd 4a52 223e 0af7 b9bf
00000040: f881 30bf 382c c7be b7b0 47bf 6732 33be
00000050: d1db e63f c119 9dbd df99 3b3f f490 6cbf
00000060: 88b3 d93d f0ab 14be c403 a5be 5653 79be
00000070: bb58 a93f 28a3 b8bd 7819 ca3d 8ff7 1bbf
00000080: 95ad 39bf 34d6 e2be bd53 b43c fcc5 2540
00000090: e697 bb3f 6b5a 1e40 b114 a9bf fe94 33bf
000000a0: f10f c63f d8fc a2bd fd0b ab3f 4ad3 30be
000000b0: 6d3b 1840 30d9 39be 38cb 473e bb85 c4bf
000000c0: 4a12 76be 604b 34be df9c 5bbe 9acb c13e
000000d0: a417 a03d 6529 9dbd dbeb 4a3e 7198 a7be
000000e0: 05c6 483f 2001 72bd f34d b7bd 00a2 733d
000000f0: 4306 4ebe 6cbf 663e ceff 043e ed42 3bbf
00000100: 94f2 f83e 20b7 9cbd 00b2 47bf 9b20 04c0
00000110: 9542 05bf 503e a4be d3cc d13f cccd 123e
00000120: 725e 25bf a4ba b8bd 94da 0bc0 3c22 0f3e
00000130: 5e86 03be bf7f 9d3d 2a9a 0b3e 5709 443e
00000140: e2fa 4dbe f90d 873d ea72 1b3e baff 76be
00000150: f01a 65bd 2d6a 89bd 2ab3 943d b1f8 17bc
00000160: d42e 10be 3c48 a7bd ff7b 80bd fa8b 7ebe
00000170: 712d 273e 3487 f43d e0de 10bd 8dae 41be
00000180: 7410 dc3e d106 a9bf a8a7 a5be f50b 34be
00000190: d8a9 38bf 58b4 f23d 1d80 933f c6f2 4e3e
000001a0: a91f c23f c4ba 883d 6375 adbe 081e 6c3e
000001b0: 30b5 27bd 08ed 2e3d 12f4 33be 1e19 23c0
000001c0: 99cd f0be bc9a 2e3e 1565 ab3f 4100 7cbf
000001d0: dec0 4fbf 175e 37bf fcbb c9bf 86ec 763f
000001e0: a80d bdbe c0c2 c13b fccd 60bf 30b4 bd3c
000001f0: f3b4 0abf 0a0c 5fbe 459b 71be a083 33bf
00000200: 3d11 b2be ea87 fdba 8f88 053f 77ba 79bf
00000210: 852d 003f 954f 0bc0 5e26 d9bf 9c2e f83d
00000220: 7308 83bf 926b 58be 45b3 00bf 78e9 63bd
00000230: cc3c ecbe da58 50bd 2e52 d9bd a360 d5be
00000240: 85d1 74be ffdf 33be c774 da3d 049f a7bd
00000250: 5a0c 673e 5ca9 4c3e 5d9d 403b f8d2 1c3d
00000260: 6017 63bc f844 fa3d 2a50 37be f49b bf3d
00000270: 6636 2c3d 2c0c d8bd b6dd 65be b7f0 4dbe
00000280: 00df b8be fc60 f0bc f24d c33f 91b9 ae3f
00000290: 3ea4 33c0 d3aa 623f a40b 08c0 a5f8 3d3f
000002a0: 40f6 0840 90ac 0dbd 7ab5 973f e835 b33d
000002b0: b263 89bf 6312 6e3e 7ba6 993d 293d 9abe
000002c0: 6382 19c0 6ade fb3e 890c 10c0 2bd4 923e
000002d0: d35a babe fa03 3b3f 2d1e 3e3e d9e6 21c0
000002e0: 48fa c43c 001a 48bb 64b9 253f 40bb 10bd
000002f0: 318e 9ebf b3b4 823d 5eae 09be caf9 583f
00000300: aa5a 1ebe 686d 113d 92ad 54be 5c71 2bbe
00000310: 6a43 1fbe 12a5 5dbe b0cf 9abc 74cd 533e
00000320: 7442 80bd 10aa 663e 2071 fb3d 6e57 1ebe
00000330: 64ac 38be 7677 2cbe 2a9b 3abe 3a40 0bbe
00000340: 703a 633d 8c4d f8bd 38b5 93bd bc98 c93d
00000350: 4812 dd3d 8c3b e83d a06f 6cbd dc8d a9bd
00000360: eed7 17be 5838 083e febf 7bbe c00f 2fbc
00000370: c88a 7f3e 5050 f83c b46c 79be 22e2 15be
00000380: c08a b43f 3e09 74bf f8af 963d 2187 45bf
00000390: 2352 1b40 fabf 8a3d f981 933f d71d 2b3e
000003a0: 00be 1240 4847 e4bd c7a1 053f a89d 263e
000003b0: eceb bd3f bf55 6f3d 6283 30be eada f5bf
000003c0: 387e 9bbd 92e3 06bc aa12 c43d 089f 1dbe
000003d0: 1bc2 15be 7b99 513e 60be 7fbe 3ec7 90bd
000003e0: d077 22be 004e 32be c299 2a3d cc28 39be
000003f0: 0580 a4bd 68d3 4e3e c0a7 bc3d 3a3c 90bd
0.8748692 -0.989354 0.23595619 0.2254631 0.07378839 -0.1778532 0.2628137 0.54187876
-0.012767921 -0.247439 -0.05976042 -0.0004940033 -0.120579675 -0.03716886 0.15851703 -1.4528515
-0.68948317 -0.38900924 -0.7800402 -0.17499696 1.8035833 -0.07670928 0.73281664 -0.9240868
0.10629946 -0.14518714 -0.32229435 -0.24348196 1.3230203 -0.090154946 0.09868139 -0.6092462
-0.7253049 -0.4430405 0.022012586 2.590209 1.4655731 2.4742687 -1.320944 -0.7014922
1.5473615 -0.07958382 1.3363034 -0.172681 2.378627 -0.18149257 0.19511116 -1.5353311
-0.24030414 -0.17606878 -0.2144656 0.37850648 0.07817009 -0.07673911 0.19816534 -0.3273349
0.78427154 -0.059083104 -0.089504145 0.059480667 -0.20119576 0.22533959 0.12988207 -0.73148996
0.48622572 -0.07652116 -0.7800598 -2.06449 -0.5205472 -0.3207879 1.6390632 0.14336318
-0.6459724 -0.09019974 -2.185216 0.13977903 -0.12844226 0.07690381 0.13633028 0.19144188
-0.20115235 0.06594462 0.15180555 -0.2412099 -0.055933893 -0.067097045 0.07260735 -0.009275601
-0.14080364 -0.081680745 -0.062736504 -0.24858084 0.16325928 0.119398504 -0.0353688 -0.18914242
0.42981303 -1.3205205 -0.32354474 -0.17582686 -0.7213416 0.11850804 1.1523472 0.20209798
1.5165912 0.06676248 -0.3387862 0.23058331 -0.04094428 0.04270652 -0.17573574 -2.548408
-0.4703186 0.17051214 1.3390223 -0.9843789 -0.81153667 -0.71627945 -1.5760493 0.96454656
-0.3692448 0.0059131086 -0.8781431 0.02315721 -0.54182357 -0.21781936 -0.23594387 -0.7012272
-0.34778777 -0.0019342874 0.52161497 -0.9755015 0.5006946 -2.1767323 -1.6964834 0.12118265
-1.0236953 -0.21134785 -0.50273544 -0.055642575 -0.46140134 -0.050865985 -0.10611378 -0.4167529
-0.2390805 -0.17565916 0.10666805 -0.08184627 0.22563305 0.1998648 0.002939067 0.038287133
-0.0138605535 0.12220186 -0.17901674 0.093559176 0.042044066 -0.105491966 -0.22447857 -0.20111357
-0.36107635 -0.02934312 1.5258162 1.365038 -2.8068995 0.8854191 -2.1257105 0.74207526
2.14003 -0.034588397 1.1852257 0.08750516 -1.073355 0.23249201 0.07502457 -0.30124786
-2.3985832 0.49193126 -2.250765 0.28677496 -0.36397418 0.7305294 0.18566199 -2.5297148
0.024045125 -0.0030533075 0.6473601 -0.035334826 -1.2387143 0.06382122 -0.13445422 0.8475615
-0.15464273 0.03550473 -0.20769337 -0.16742462 -0.1555306 -0.21645 -0.018897861 0.20683843
-0.06262675 0.22525811 0.12277436 -0.1546304 -0.18034512 -0.16842446 -0.18223253 -0.13598719
0.055475652 -0.12124166 -0.07212299 0.09843585 0.107945025 0.11339483 -0.05772364 -0.08279011
-0.14828464 0.13302743 -0.24584958 -0.010684907 0.24955285 0.030311733 -0.24357873 -0.14637044
1.4104843 -0.953266 0.07357782 -0.77159315 2.4268882 0.06774898 1.152404 0.16710602
2.2928467 -0.11146408 0.5219998 0.16271079 1.4837623 0.058431383 -0.17237619 -1.9207432
-0.07592434 -0.008232968 0.095738724 -0.15392697 -0.14624827 0.20468704 -0.24974966 -0.070692524
-0.15866017 -0.17412567 0.04165054 -0.18081969 -0.0803223 0.20197833 0.09211683 -0.07042737

layers.1.bias f4 [32]
00000000: b036 a6bf 9124 fcbf b4a0 89c0 afad 17bf
00000010: 6601 2e3f c7c9 50bc ed0c 2fc0 37e3 973f
00000020: d354 5940 a388 25be 5522 a83e 5116 d1bf
00000030: def5 37be 4a76 51be 8eab 3fc0 893a f1bd
00000040: d331 01c0 b814 91be 2489 363f 413b 32c0
00000050: 58fa 4bbe b6bc 77c0 8525 07bf c79e e5be
00000060: 00a3 d7bb 5815 fcbd 2269 133d be05 c3bf
00000070: 04bc 883e 20c0 f9be 968d 3bbe a854 e2be
-1.2985439 -1.9698659 -4.300867 -0.59249395 0.67970884 -0.01274342 -2.735164 1.1866215
3.3958023 -0.16165404 0.32838693 -1.6334935 -0.17964885 -0.2045528 -2.9948459 -0.11778743
-2.018666 -0.2833612 0.7130301 -2.7848666 -0.19919717 -3.870893 -0.52791625 -0.448477
-0.0065807104 -0.123087585 0.035988934 -1.5236127 0.26705945 -0.48779392 -0.1831573 -0.44205213

layers.2.weight f4 [32, 32]
00000000: 9f9d 113d d693 97bd 22dc aa3d fbb7 b1bc
00000010: 4f03 1ebf 2d4e 443b 1c39 28be bd6c 9cbf
00000020: 3f5a 10bf 3c96 243e 4fcc f1bf 713e 3fbf
00000030: d51e 923c 76ec 123e a035 6ebf d5d5 a33d
00000040: fc70 ac3e 984f 7d3f 1ab0 ac3f b530 753e
00000050: 8f1a 1f3e 999a cdbe afa3 e0bd 4925 b43d
00000060: b64c 693b 0ec8 eebd 159b 583d c4f7 ce3e
00000070: 475d b83f 5d92 433e 6d21 44bd 6036 6f3d
00000080: 6d7d 13be e675 af3b 590e cbbd 29cd fabd
00000090: 24ee a6bd 7d33 fc3d ba73 06be 3026 0c3e
000000a0: 7706 0ebe a4e3 a53d 5643 62bd 370b 0ebe
000000b0: 0d34 0cbe 6863 50bd fa24 19be 9d41 fb3d
000000c0: af52 e4bb b6ad e63c 20b5 cb3d 5752 833d
000000d0: b78f 0c3e 8622 66bd 9428 96bd b3ef 29be
000000e0: 3978 c93d 8a51 fabd fed5 8ebd 124e 56bd
000000f0: 3c4d 0a3d 032f 273e 6b1e 613d 300e f8bd
00000100: aec9 82be 26db d33c 4996 5a3e 68e0 80bd
00000110: 68e3 02be dced dbbc 351a c8bb 1ebe 80bc
00000120: 8324 25be b231 61bc af40 07be 6fd7 68be
00000130: eca0 59bd f153 29bd f5be b4bd 660b 95bd
00000140: f9f1 abbd 3e7d b0bd 920d 4d3b d8af 1c3e
00000150: 123b 27bc a8ec 6abd 45ee 1cbd a522 c43d
00000160: fcd3 d7bd d0ef cb3c 6517 e6bd 2600 8b3d
00000170: 7cac 473e 78c4 56bd 0954 2abe a94d 22bd
00000180: 6551 253e e939 91bd 05e3 f0bd 51cc debd
00000190: 3ff8 123f ff45 31be 6d73 0ebe d448 873e
000001a0: 5eea 5d3e 62e1 233e ccbd 6fbf 5aa3 143f
000001b0: be81 f0bd 24a8 c7bd a918 ab3d 5a18 f83d
000001c0: a157 2e3c 8557 be3e f061 263f 9039 963d
000001d0: f45c 19bc ff33 13be 998d aa3d 3fe3 16be
000001e0: 1839 dc3b f5c0 38ba 531f 2fbe de89 0bbf
000001f0: 9bc7 85be b352 113e b497 0bbe bd42 63bd
00000200: e5e9 babc 3ef9 f1bd bb15 d8be fe3d 2cbe
00000210: 5971 dc3b cca3 d7bd 0f38 d5be 0f9d 8dbe
00000220: 26a2 40bf 5ca7 cfbc 3e5d 8a3f 22d7 ab3f
00000230: 3394 8c3d 0d9c e93d 44e7 a9bd 8685 b53c
00000240: ec5a 8ebf ff27 ea3e 34df b4bf a3b3 a9be
00000250: a6a1 af3d 075f aabe df70 87be 8e86 3bbf
00000260: 60f2 04be f3ca f43d 6e80 31be d270 efbf
00000270: 61a6 ccbe 4129 adbd 614a ab3d 2213 c23d
00000280: bbe6 9a3d 16c0 a6be 7c5b 923f fd1c 4f3f
00000290: 0517 e6bd 0d3a eb3d 5338 213e 0969 88be
000002a0: 50e7 80bf bf9b 94bd a003 fd3e c101 71bc
000002b0: 5e98 983d 157d 82bd 6d5d db3c 87fb b93d
000002c0: ec52 1d3f aa75 383d a1a0 fbbe 0f21 813f
000002d0: 2d27 2dbd 4a03 f0be 4ed7 d23d 9681 1bbe
000002e0: 642d d43d 1122 e9bc c1d9 31bd b294 153e
000002f0: 76d4 20bf 8ced 813e cf3a ccbd ec08 da3d
00000300: 638c 833e d2a8 a03d 7708 b6be 2208 e33d
00000310: fb19 8ebf a2cf 213e 3ada d83e 6022 a43e
00000320: 98ec 983e 80e7 613d 1579 97be 5cfc fabf
00000330: fe6f 343d 319c 2bbb 7cc1 c5bf 8a3a 033e
00000340: e774 583b 600b a63c 93c8 573f 40c0 06be
00000350: ccbf 9dbd 0ed2 4bbe 2724 34be 22f3 04be
00000360: ba89 75bc e4cd 20be a13f 003e 1f77 f43e
00000370: 8056 8e3f 02fc 553d a776 243e a3db f13d
00000380: 2530 273e 5754 0ebe 8d30 efbc 5731 53bd
00000390: 20c8 70bd b095 b33d 10a0 a13c c864 7dbd
000003a0: 0357 18be b861 dcbd 95b7 86bd bbc2 e4bd
000003b0: 4061 4e3b 1403 a13d 32a5 b1bd 8c81 053e
000003c0: 4fe6 a33d f1c9 b33d 014a cfbb 80be 873d
000003d0: eddb 90bd 7cc7 033e a305 193d 6f47 9fbd
000003e0: cc1e 863d 32b9 133e 0279 30be 7eb7 153c
000003f0: b1bd a1bd 749d c6bd 52a0 30be 2e42 023e
0.03555071 -0.07401244 0.08342768 -0.021694174 -0.617238 0.0029953823 -0.16428035 -1.2220684
-0.56387705 0.16072935 -1.8890475 -0.74704653 0.017836967 0.14348015 -0.93050575 0.079997696
0.3367995 0.98949575 1.3491242 0.23944362 0.15537475 -0.4015701 -0.1096872 0.08796174
0.0035598702 -0.11659251 0.052882273 0.40423405 1.4403466 0.19098802 -0.04788344 0.058401465
-0.14403315 0.0053546308 -0.09914846 -0.122461624 -0.081508905 0.12314508 -0.13130084 0.13686442
-0.13869654 0.0810006 -0.055239998 -0.13871466 -0.13691731 -0.05087605 -0.14955512 0.12268374
-0.0069678645 0.028159004 0.09946656 0.064121895 0.13726698 -0.056185268 -0.073319584 -0.16595344
0.09837384 -0.122225836 -0.069744095 -0.052320547 0.033765063 0.16326527 0.05496065 -0.12112081
-0.25544494 0.025861334 0.21346392 -0.06292802 -0.12782061 -0.026846819 -0.0061066397 -0.015715655
-0.1612721 -0.013744758 -0.13208269 -0.22738431 -0.053131983 -0.04133982 -0.08825485 -0.07277565
-0.08395762 -0.08617638 0.0031288606 0.15301454 -0.010206955 -0.0573546 -0.03831317 0.095769204
-0.1053848 0.024894625 -0.11234931 0.06787138 0.19499391 -0.05243346 -0.1663362 -0.039624844
0.16144331 -0.070911236 -0.117620505 -0.10878814 0.57410043 -0.17311858 -0.13911219 0.2642275
0.21671435 0.16003945 -0.9364898 0.58061755 -0.11743496 -0.09748867 0.08354313 0.1211402
0.01064101 0.37176147 0.6499319 0.07335198 -0.009360541 -0.14375304 0.08327789 -0.14735125
0.0067206733 -0.0007047796 -0.17101793 -0.54507244 -0.2612885 0.14191703 -0.13632089 -0.05548357
-0.022816608 -0.11815117 -0.4220408 -0.16820523 0.0067273793 -0.10529289 -0.41644332 -0.2765889
-0.7524742 -0.025348358 1.0809705 1.3425028 0.06864204 0.114067174 -0.082960635 0.022158395
-1.1121497 0.4573364 -1.4130616 -0.33144864 0.08575754 -0.33275625 -0.264533 -0.7325219
-0.12983084 0.11952772 -0.17334148 -1.8706305 -0.39970687 -0.08455134 0.08363796 0.094763055
0.075635396 -0.32568425 1.1434169 0.8090361 -0.112348594 0.11485682 0.15744142 -0.26642635
-1.0070591 -0.07256269 0.49416828 -0.014709891 0.07450937 -0.06371514 0.026777947 0.09081178
0.61454654 0.04503409 -0.49145988 1.0088214 -0.04227369 -0.4687751 0.10294972 -0.15186152
0.1036022 -0.028458627 -0.043420557 0.14607504 -0.6282419 0.25376546 -0.09972154 0.10646233
0.25693044 0.078447 -0.35553333 0.110855356 -1.1101679 0.15801862 0.42353994 0.32057476
0.29868007 0.055152416 -0.29584566 -1.9608264 0.044052117 -0.0026185627 -1.5449672 0.128153
0.0033028664 0.020269096 0.84290427 -0.13159275 -0.07702598 -0.19904348 -0.17591916 -0.12983373
-0.01498645 -0.15703541 0.12524273 0.47747132 1.1120148 0.052242287 0.16060887 0.118094705
0.1632696 -0.1389936 -0.029197956 -0.051560726 -0.058784604 0.08768785 0.019729644 -0.06186369
-0.14876942 -0.10760826 -0.06577984 -0.111699544 0.003149107 0.07861915 -0.08674087 0.130377
0.08002912 0.08778752 -0.0063259606 0.06628132 -0.070731975 0.12869066 0.03735889 -0.07777297
0.06548843 0.14426115 -0.17233661 0.009137986 -0.07897509 -0.096980006 -0.17248657 0.12720558

layers.2.bias f4 [32]
00000000: 0509 933f 555d 30be ff3c d5bd cc38 8cbe
00000010: ac75 0840 0e4e 12c0 0f44 b5be 99f5 c13c
00000020: f294 90bf d59b 94bf 788c cd3f 2994 03c0
00000030: 3b49 c0bf 69c7 d3bf 5c02 bc3d 3ee9 02c0
00000040: 04ab 9bbd c089 44c0 396c dd3d c3c1 4bbe
00000050: 4b48 27bf 4c4d 22be d2eb 68be fd4b 57bf
00000060: 336a b6be fa99 93be 5809 663f 4dfc 2c3e
00000070: 1af3 6dbf df14 53bd ae3d 5e3f 9f19 1ebf
1.1487128 -0.17223103 -0.10412025 -0.27387083 2.1321821 -2.286014 -0.35403487 0.02367668
-1.1295455 -1.1610056 1.6058493 -2.055918 -1.5022348 -1.654523 0.091801375 -2.045486
-0.07600978 -3.0709076 0.108116575 -0.19898133 -0.65344685 -0.15849799 -0.22746208 -0.84100324
-0.356279 -0.28828412 0.8985801 0.1689312 -0.9294907 -0.051533576 0.86812866 -0.61757845

layers.3.weight f4 [16, 32]
00000000: c57a e63e 9da5 cb3d f4d7 54be 79ba aabe
00000010: 83df c8be 0fb3 aabe e0b1 9a3e 2cf8 27be
00000020: 7fcc 9bbf b87e 23be a918 103f db51 4e3e
00000030: 28ec 643c ad0c 82bd a80d 32be a46a 203e
00000040: 0abd 84bd 9520 a73d 2d35 f5bd e32a d7bc
00000050: f818 4abe 7738 4ebc 4aeb bfbe 6263 52be
00000060: 1711 3fbd 3412 16be 5e63 233e a95e 583e
00000070: 5f21 073e 0ae3 803e 13b1 41bf bf48 0b3e
00000080: 85a1 49be f3da 483d ed18 b43c 461e e9bc
00000090: 4db4 54bd f0ce ae3b 7612 10be 6b3e 4ebc
000000a0: 0fec a93c d23a 073e 520e 003d e183 563d
000000b0: 62ce 323d 62ae d3bc e0f2 993d 6161 1d3e
000000c0: 4d15 57bd 1d18 893d dc7a cd3d 72a5 9b3d
000000d0: 944b 473d 1f92 b3bd 97f0 12be 77fe 103c
000000e0: 64b4 ff3c 136b 81bd e13d d93d e802 3bbe
000000f0: e75c cbbb 3763 893d 37fe e1bc 9077 2a3e
00000100: a42d 94be d896 b33b 02cb 9dbd 6c3f 273b
00000110: 9523 99be 6fbb 2e3e d652 a33c 22e9 073a
00000120: f370 86be cc2e b0bd b096 213e 42fe 6e3d
00000130: ec47 42bd 14a0 13bc 5c74 2b3e c5f6 bcbd
00000140: 46a3 20be dad4 b93b fefa c4bd 7f66 f03d
00000150: 49a0 b13d fc24 20be e7a3 713b 396a e3bd
00000160: 7f26 a3bc 46b9 dbbd 512b 19be 5a9b bd3d
00000170: 1d30 f7bd 0a39 bc3d ae3d d03c fdff c1bd
00000180: f398 043e 6933 e3bd bb0e d0bd b98d 3d3e
00000190: f68c 45bc 2720 0c3e e742 d93d 6dc6 a8bd
000001a0: 6a62 143d b0bf d93d 8441 4fbe 45d0 a8bd
000001b0: 6c2e 9abc 5a94 95bd fff3 2c3e 3277 d4bd
000001c0: ec42 33bd 8b6c 3a3e b6fb 053d e5e5 92bd
000001d0: 7652 d4bd 6d48 73bc 50da f13d 79f0 0bbe
000001e0: 1fb1 fabd fc5d 87bd e6e5 b03d 2e11 28be
000001f0: 8230 a8bd b03c 0dbe b18a 803c d9fc 873d
00000200: 4643 70bf c8d4 c43b 925f 353e df17 323f
00000210: dff0 b43f 2793 5e3e 605e 4fbf f83a eb3b
00000220: 3af9 463f 17a4 97bf a9b8 9abf 45c4 23bf
00000230: dd86 1ebf 68b0 ffbf d254 ce3b 6367 aabe
00000240: 5abc 11be 6b36 86bf 3afb b63e cb58 133e
00000250: 98ff 7cbe 303f c63d 6973 453e 9f05 233f
00000260: 6fc8 d9bd 0b46 17bd cb25 543e 6dd6 63be
00000270: 3d62 113e c14a 83be 8d17 9f3f 74a3 c63d
00000280: 314d 643f 9b83 d13d 3ba5 d63d 71b7 12be
00000290: 91a1 07be d1e2 c3bf caf9 c5bc 6c92 593c
000002a0: f852 eebf 2e2b 853e 976b a73f 83c5 493f
000002b0: 520f 613e 7cb5 723f ef63 31be f11e 4b3f
000002c0: b838 2c3e 572b 3e3f a63e 4abe 1b1e 02be
000002d0: 4efe ebbe e7ce 08be a6e9 08bf bf72 9ebe
000002e0: de80 51be cdc3 b23c 24c9 da3e ce80 c23e
000002f0: c083 f93e d9fc c83e 061b 55bf 3dce d6be
00000300: b07d 06bf 4d13 2e3e 1bb1 7b3e 10ce 0e3e
00000310: 348e 3c3e 19e3 34bf 3c13 81bd 83dd 85bd
00000320: c8c4 7cbd ec2c fa3e 174f 00bf 09c7 d03e
00000330: b2cc 6c3e 26c9 8d3e 27e9 28be f2fd 5e3f
00000340: 543e 383e 189a 1c3f c11f 65bd ea2e 83be
00000350: e998 c0be 6333 8fbc 2932 1e3e 36d3 95be
00000360: ee8c 983d 7250 623d db76 d53b 9fcc 8bbe
00000370: 0de4 1b3f ee49 20be fe79 ed3d 724a 36be
00000380: bd7e 83bd 94d1 b3bd fde5 083e 28d9 343e
00000390: 0d4b 3c3d e243 153e f9ef acbd 1402 fa3d
000003a0: 6bfa 36be 4ea9 03bb 72c9 edbd a196 9b3d
000003b0: 9544 bbbd 3107 e3bd 49a4 1bbe 1c29 a33d
000003c0: edf5 71bd 1fc0 d4bc 22dd bebc 62f7 ca3d
000003d0: f990 743d 0663 473d 76fe 0abe 7db3 833c
000003e0: f5e7 12be 4af3 cd3d 7f76 c6bd 251f 723d
000003f0: e826 db3d 5177 36bc 1254 76bd 09c9 89bd
0.4501554 0.099436976 -0.20785505 -0.33345392 -0.39233026 -0.33339736 0.30213833 -0.16403264
-1.2171782 -0.15966308 0.5628763 0.20148413 0.01397232 -0.06350074 -0.17388022 0.1566568
-0.06481369 0.081605114 -0.11973033 -0.026265567 -0.19736087 -0.012586704 -0.374842 -0.20545724
-0.046647158 -0.14655381 0.15955874 0.2112986 0.13196324 0.25173217 -0.7566082 0.13601969
-0.19690521 0.04903693 0.021984542 -0.028456818 -0.05192976 0.0053347275 -0.14069542 -0.012588124
0.020742444 0.13206032 0.031263657 0.052371863 0.043653853 -0.025839988 0.07517028 0.15369178
-0.05251055 0.06694052 0.10033199 0.075999156 0.04865606 -0.08768105 -0.1434959 0.008849732
0.031213947 -0.06319251 0.106075056 -0.18262827 -0.006206143 0.06708377 -0.02758704 0.16647172
-0.2894107 0.0054806285 -0.07704736 0.002551998 -0.2990996 0.17063688 0.01993696 0.0005184581
-0.26258048 -0.08602676 0.15780139 0.058347948 -0.04743187 -0.009010334 0.16743606 -0.09226755
-0.15687284 0.005671126 -0.096181855 0.117382996 0.0867315 -0.15639108 0.0036871375 -0.11104245
-0.019915817 -0.107286975 -0.1495793 0.092581466 -0.12069724 0.09190567 0.025420036 -0.09472654
0.1294897 -0.1109379 -0.101590596 0.18511094 -0.0120575335 0.1368414 0.10608464 -0.08240972
0.036226667 0.106322646 -0.20239836 -0.08242849 -0.018820964 -0.073036864 0.16889952 -0.10374297
-0.043764994 0.18205468 0.032710753 -0.07172755 -0.10367291 -0.014848811 0.11809218 -0.13665952
-0.122408144 -0.06609723 0.086376 -0.16412804 -0.08212377 -0.13792682 0.015691133 0.06640024
-0.9385265 0.006006811 0.17712238 0.69567674 1.4136008 0.21735822 -0.8100338 0.0071786605
0.7772404 -1.1846951 -1.2087604 -0.6397136 -0.61924535 -1.997571 0.0062967325 -0.33282003
-0.14232007 -1.0485357 0.35738546 0.1438934 -0.24706876 0.09680021 0.19282307 0.6368045
-0.10633933 -0.036932033 0.20717542 -0.22249766 0.14197631 -0.2564297 1.2429062 0.09699145
0.89180285 0.1023018 0.10480734 -0.1432779 -0.13245226 -1.5303594 -0.02416696 0.013279539
-1.861907 0.26009506 1.3079709 0.78817004 0.219785 0.94808173 -0.17323278 0.7934409
0.16818511 0.7428488 -0.19750461 -0.12706797 -0.46092457 -0.13360177 -0.5348152 -0.3094692
-0.20459315 0.02182188 0.42731583 0.37988895 0.4873333 0.39255407 -0.8324436 -0.41954222
-0.52535534 0.1699955 0.24579279 0.13945794 0.18413621 -0.70659024 -0.06302497 -0.06536391
-0.061711103 0.48862398 -0.5012068 0.40776852 0.2312496 0.27692527 -0.1649519 0.8710624
0.17992526 0.6117263 -0.055938486 -0.2562173 -0.3761666 -0.017480558 0.15448822 -0.29262704
0.07448755 0.0552525 0.006514413 -0.2730455 0.6089485 -0.15653202 0.11595534 -0.17801836
-0.06420658 -0.08780208 0.13368984 0.17660964 0.04597001 0.14576676 -0.08444209 0.122074276
-0.17868964 -0.0020089927 -0.11610688 0.075970896 -0.0914394 -0.11085356 -0.15199389 0.07966825
-0.059072424 -0.025970517 -0.023298804 0.09910466 0.05970857 0.04867842 -0.13573632 0.016076798
-0.14346297 0.10056169 -0.0969057 0.059111733 0.1070078 -0.011136846 -0.06013877 -0.067277975

layers.3.bias f4 [16]
00000000: 5694 233f 26a7 83be fd48 0d3e 0129 1cbe
00000010: 6597 893f 5277 563f f7b4 86bf 433b 53be
00000020: 7aed dfbe 7a10 f8bd c775 1b3f 2a38 12be
00000030: c4e6 b5bf 64ea cbbe 085a 2f3f 6fd9 11bf
0.6389822 -0.25713462 0.13797374 -0.15250017 1.0749327 0.8377582 -1.0523976 -0.20628075
-0.43735868 -0.12112518 0.6072659 -0.14279237 -1.4211049 -0.39827263 0.6849675 -0.569724

layers.4.weight f4 [1, 16]
00000000: 2b6d 453f d19a 2a3d 9167 c03e a302 ee3d
00000010: e2f7 a6bf 22eb 803f 9030 d63e 5b16 043e
00000020: f37b e1bf 3bd5 14be 9795 5d3f 732f cb3e
00000030: 7b3d 38bf 26b8 39bf ab35 98be 6153 36bf
0.771197 0.04165155 0.37579015 0.11621597 -1.3044398 1.0071757 0.41833925 0.12899153
-1.7615951 -0.14534466 0.8655638 0.39684638 -0.7196881 -0.72546613 -0.29728445 -0.71220976
