Sem4/SI/lab7/saved_models/FrozenLake/QAgent/run-2025-05-28_10-12-32/model_best.npy (npy, 928 bytes, 1 tensors)

array f8 [25, 4]
000000 00 00 00 00 00 00 00 00 00 00 00 00 00 00 00 00
       0.0 0.0
000010 00 00 00 00 00 00 00 00 00 00 00 00 00 00 00 00
       0.0 0.0
000020 30 10 07 71 d9 cd 5c 40 5a 9b 40 eb c4 8b 31 40
       115.21639657678384 17.545973494790225
000030 b8 a1 25 59 07 10 f5 bf d1 93 0c 8a dd b9 8c 40
       -1.316413257818665 919.2331734640703
000040 83 37 91 e8 f4 eb 40 40 b4 70 69 4c ef 55 26 40
       33.84341151323954 11.16784132754433
000050 11 50 e2 9d 7d a4 d0 bf c7 bd 7a 4c 55 44 87 40
       -0.26003971498835293 744.5416497792402
000060 ec 51 b8 1e 85 eb df bf 3a 0d 3f ba 73 58 28 40
       -0.49875 12.172757930943238
000070 b8 d3 23 8e 57 06 e6 bf ea d1 67 a0 8d 4b 81 40
       -0.6882741714640508 553.4441536055504
000080 a6 dd cd 6c c6 11 30 40 5f 15 cb c6 ed b2 72 40
       16.06943397546788 299.18305091218457
000090 b9 ee 3c fd b1 80 4f 40 12 1a da 0f ac 7d 4f 40
       63.00543179965229 62.981813413138426
0000a0 00 00 00 00 00 00 00 00 00 00 00 00 00 00 00 00
       0.0 0.0
0000b0 00 00 00 00 00 00 00 00 00 00 00 00 00 00 00 00
       0.0 0.0
0000c0 27 1b 69 66 90 f2 7f 40 41 9d 6f ad 95 68 63 c0
       511.1602539163309 -155.26827117728865
0000d0 35 ea 97 e3 38 31 61 c0 b9 1e 85 eb d1 ea 61 c0
       -137.5381944624984 -143.33812500000002
0000e0 ec 51 b8 1e 85 eb df bf 4e 41 48 89 6d 0c d6 bf
       -0.49875 -0.3445085373541773
0000f0 c7 1e fa 30 f6 1f 6b 40 ee 39 6a 8c 03 df 16 c0
       216.99880265094382 -5.717786973937548
000100 0e a9 f5 3f f4 71 47 40 01 ee 9e d0 3e 94 13 40
       46.890266413642266 4.894770869922923
000110 50 d6 a5 a1 e7 f2 6c 40 66 7f 85 47 ab e5 3d 40
       231.59077532186575 29.89714476594181
000120 8a be 86 a1 fa 1d 71 40 50 f9 60 84 89 e5 3b 40
       273.87368919977655 27.896629594493163
000130 c0 93 1b 7f 5c cf 24 40 54 a3 ce e5 66 79 41 40
       10.40500256740222 34.948452688119374
000140 b9 1e 85 eb d1 ea 61 c0 6c a3 a9 1b 9d 5d 46 40
       -143.33812500000002 44.73135705741046
000150 d4 0f bd 6f 6d 52 61 c0 07 a1 bc cd 7b c5 60 c0
       -138.57585894514216 -134.17136275140385
000160 d0 f1 73 b5 a3 4c 1c 40 2d 22 c5 26 bb 61 13 40
       7.074843249513336 4.845440488607477
000170 cb f4 38 da 71 57 63 40 32 85 80 fd 17 14 23 c0
       154.73264800190222 -9.539245531023514
000180 2e b0 0c 99 9e 35 66 40 5d 84 ee 8e 67 a6 19 c0
       177.67561008909382 -6.412504418666768
000190 52 48 1e 4b 17 4d 2b 40 74 ec ec d7 10 94 06 40
       13.650568339773745 2.822297751348339
0001a0 6e 46 81 9f d8 4f 60 40 fc 5f 33 27 6d fd 57 c0
       130.49519324540182 -95.95978717820248
0001b0 71 3e dc 5b 8f c6 49 c0 da 73 84 bc 9d 8e 48 c0
       -51.55124996427629 -49.11418873279008
0001c0 6d 66 35 42 96 95 63 40 52 b8 1e 85 eb d1 e6 bf
       156.67459211759288 -0.713125
0001d0 40 9a dc ee 51 ec e5 bf ca cf c3 38 3f 5f 0f 40
       -0.6850976624744547 3.9215073046452504
0001e0 87 06 ed 5b 39 ae 3e c0 ab a9 48 0a 26 dd 40 c0
       -30.680562730186036 -33.72772339389788
0001f0 60 9f b4 11 6c 71 57 40 2a 2a 14 e1 c8 81 3a c0
       93.77222101820871 -26.506971423552535
000200 6f a9 f3 ca 69 53 5e 40 ce eb c5 06 13 ce 37 c0
       121.30333207888701 -23.804977820702156
000210 88 3d 08 90 6b db 21 c0 f9 75 36 3d a5 b2 3c c0
       -8.928555012708571 -28.697833848758794
000220 32 22 ef ad 74 de 65 c0 68 98 15 9c 8b a0 63 c0
       -174.95174309449936 -157.01704220025863
000230 fd a9 f1 d2 ad f1 61 c0 e0 b4 a1 ed 3c 8a 3b 40
       -143.55246875000003 27.5399921912948
000240 00 00 00 00 00 00 00 00 00 00 00 00 00 00 00 00
       0.0 0.0
000250 00 00 00 00 00 00 00 00 00 00 00 00 00 00 00 00
       0.0 0.0
000260 24 49 b9 44 f1 b5 29 c0 8a 8d 3c 9a a8 d7 64 c0
       -12.855356357210049 -166.7393313582109
000270 64 44 05 d9 21 aa 65 c0 72 ef e8 1d 05 d3 69 c0
       -173.31663180378666 -206.59437461371596
000280 a8 87 16 d1 1e aa 52 40 90 66 60 43 1b ff 2d c0
       74.65813090515314 -14.998254876630455
000290 ed 31 38 1a 75 ea 34 c0 c8 f2 c7 01 fe 07 37 c0
       -20.915849341125 -23.031219588580626
0002a0 ed 8c 8f 8f 5d 1d 57 40 af 3d af 07 d0 66 40 c0
       92.45883549707987 -32.803223572317954
0002b0 43 9c 2f 8a 12 67 3b c0 aa 32 fe cb e2 81 40 c0
       -27.402626644729263 -33.01473379051215
0002c0 8e dd 24 18 10 87 60 c0 ce 51 4e e5 48 7b 61 c0
       -132.22071463775904 -139.85264840409076
0002d0 b9 1e 85 eb d1 ea 61 c0 7f 34 71 1c 07 71 2c 40
       -143.33812500000002 14.22075737840555
0002e0 00 00 00 00 00 00 00 00 00 00 00 00 00 00 00 00
       0.0 0.0
0002f0 00 00 00 00 00 00 00 00 00 00 00 00 00 00 00 00
       0.0 0.0
000300 8b b6 e7 8a 97 d1 62 c0 66 4d cf 87 25 92 66 c0
       -150.54974885231454 -180.56708136070955
000310 ae cc a0 23 0c 79 65 c0 b8 cc e9 b2 8c 46 67 c0
       -171.782731832563 -186.20467515625
