Sem4/SI/lab7/saved_models/FrozenLake/QAgent/run-2025-05-28_10-12-32/model.npy (npy, 928 bytes, 1 tensors)

array f8 [25, 4]
0	0x0000000000000000	0.0
1	0x0000000000000000	0.0
2	0x0000000000000000	0.0
3	0x0000000000000000	0.0
4	0x4060e9f45d8a8d06	135.31107976017682
5	0x40318bc4eb409b5a	17.545973494790225
6	0xbff510075925a1b8	-1.316413257818665
7	0x408c616e89c0ce41	908.178973680777
8	0x4040ebf4e8913783	33.84341151323954
9	0x402655ef4c6970b4	11.16784132754433
10	0x404999ae413c0b2e	51.200630335157584
11	0x4087401a9e9dc659	744.0129978490978
12	0xbfdfeb851eb851ec	-0.49875
13	0x40285873ba3f0d3a	12.172757930943238
14	0xbfe606578e23d3b8	-0.6882741714640508
15	0x4082813d68597fe2	592.1549841873314
16	0x403a5a34b8eb3526	26.352366979049428
17	0x40723bdcba1d2e5e	291.741388429631
18	0x4052c886bf4d328e	75.13322432078186
19	0x404f7dac0fda1a12	62.981813413138426
20	0x0000000000000000	0.0
21	0x0000000000000000	0.0
22	0x0000000000000000	0.0
23	0x0000000000000000	0.0
24	0x408494946bc335ba	658.5724711657306
25	0xc0636895ad6f9d41	-155.26827117728865
26	0xc0613138e397ea35	-137.5381944624984
27	0xc061ead1eb851eb9	-143.33812500000002
28	0xbfdfeb851eb851ec	-0.49875
29	0xbfd60c6d8948414e	-0.3445085373541773
30	0x406d993679f70ab1	236.78789995432228
31	0xc016df038c6a39ee	-5.717786973937548
32	0x404771f43ff5a90e	46.890266413642266
33	0x4013943ed09eee01	4.894770869922923
34	0x4070c70a032f2a44	268.43994444297664
35	0x403de5ab47857f66	29.89714476594181
36	0x407115f3d3820195	273.3720278814665
37	0x4040ea23b5cf5972	33.82921478867037
38	0x40356935207ec6de	21.410966902686475
39	0x4049157d876cd877	50.16789334120488
40	0xc061ead1eb851eb9	-143.33812500000002
41	0x4045aba6a52d0fb9	43.34102310848488
42	0xc061526d6fbd0fd4	-138.57585894514216
43	0xc05f0185c3f61162	-124.02378939657277
44	0x401c4ca3b573f1d0	7.074843249513336
45	0x401361bb26c5222d	4.845440488607477
46	0x4065ff53af42806f	175.97896540630924
47	0xc0231417fd808532	-9.539245531023514
48	0x4066fa2ac567e699	183.81772108357544
49	0xc019a6678eee845d	-6.412504418666768
50	0x4034d6aabdc5f733	20.83854280551095
51	0x40069410d7ecec74	2.822297751348339
52	0x405bff47253aadd4	111.98871737223027
53	0xc057fd6d27335ffc	-95.95978717820248
54	0xc049c68f5bdc3e71	-51.55124996427629
55	0xc0488e9dbc8473da	-49.11418873279008
56	0x406677c1cf3615ff	179.74240837634713
57	0xbfe6d1eb851eb852	-0.713125
58	0xbfe5ec51eedc9a40	-0.6850976624744547
59	0x400f5f3f38c3cfca	3.9215073046452504
60	0xc03eae395bed0687	-30.680562730186036
61	0xc03ae225e630bb23	-26.88339079560968
62	0x405ba1fc32000240	110.53101778031214
63	0xc03a81c8e1142a2a	-26.506971423552535
64	0x4062984b4e147a5b	148.759192504879
65	0xc037ce1306c5ebce	-23.804977820702156
66	0xc021db6b90083d88	-8.928555012708571
67	0xc03cb2a53d3675f9	-28.697833848758794
68	0xc065de74adef2232	-174.95174309449936
69	0xc063a08b9c159868	-157.01704220025863
70	0xc061f1add2f1a9fd	-143.55246875000003
71	0xc030fc103052c2c1	-16.98462202091719
72	0x0000000000000000	0.0
73	0x0000000000000000	0.0
74	0x0000000000000000	0.0
75	0x0000000000000000	0.0
76	0xc0379aa24303ccee	-23.6040384182242
77	0xc064d7a89a3c8d8a	-166.7393313582109
78	0xc065aa21d9054464	-173.31663180378666
79	0xc069d3051de8ef72	-206.59437461371596
80	0x405773240647cc49	93.79907376300356
81	0xc02dff1b43606690	-14.998254876630455
82	0xc034ea751a3831ed	-20.915849341125
83	0xc03202b8c9b4e0b6	-18.01063213983499
84	0x405a443ece851b61	105.0663334178803
85	0xc04066d007af3daf	-32.803223572317954
86	0xc03b67128a2f9c43	-27.402626644729263
87	0xc04081e2cbfe32aa	-33.01473379051215
88	0xc06087101824dd8e	-132.22071463775904
89	0xc0617b48e54e51ce	-139.85264840409076
90	0xc061ead1eb851eb9	-143.33812500000002
91	0x404d263cae774566	58.29872685264381
92	0x0000000000000000	0.0
93	0x0000000000000000	0.0
94	0x0000000000000000	0.0
95	0x0000000000000000	0.0
96	0xc061d91418eeb99c	-142.78370329500183
97	0xc066922587cf4d66	-180.56708136070955
98	0xc065790c23a0ccae	-171.782731832563
99	0xc067468cb2e9ccb8	-186.20467515625
