Sem4/SI/lab7/saved_models/FrozenLake/QAgent/run-2025-05-28_10-38-39/model_best.npy (npy, 928 bytes, 1 tensors)

array f8 [25, 4]
000000 00 00 00 00 00 00 00 00 00 00 00 00 00 00 00 00
       0.0 0.0
000010 00 00 00 00 00 00 00 00 00 00 00 00 00 00 00 00
       0.0 0.0
000020 4c 18 8a 11 b8 39 77 40 92 6d 94 53 a2 b2 72 40
       371.607438601907 299.1646304891557
000030 8b 2a 10 31 ca 29 6a 40 f6 7e 7e d5 4a 53 89 40
       209.30593159825762 810.411540020227
000040 1a dc 82 64 dc b8 76 40 17 d9 39 41 a6 c0 62 40
       363.5538067924223 150.0202947740406
000050 c5 c1 83 84 81 c6 58 40 15 3c e7 3e fe 81 85 40
       99.10165512911688 688.249143415948
000060 9e fb 18 a5 62 d4 47 40 64 09 f7 95 67 f8 42 40
       47.659260403822586 37.94066118776644
000070 cb c8 1a c9 51 eb 70 40 31 99 42 e4 57 c8 5d 40
       270.70746717894207 119.13036448005438
000080 13 7e c4 d0 60 08 4b 40 28 37 af 47 3c ea 53 40
       54.06545457453117 79.65992920027622
000090 ce 05 c7 8f 09 c5 4c 40 f6 47 e3 99 b4 da 69 40
       57.539354297808686 206.83454603567924
0000a0 00 00 00 00 00 00 00 00 00 00 00 00 00 00 00 00
       0.0 0.0
0000b0 00 00 00 00 00 00 00 00 00 00 00 00 00 00 00 00
       0.0 0.0
0000c0 2c 32 5c 6b 66 c0 4a 40 87 82 13 f4 6f 9f 56 40
       53.50312559129483 90.49120809464704
0000d0 d5 14 48 5b 5e 26 7e 40 66 66 66 66 66 de 67 c0
       482.39803627163684 -190.95
0000e0 e6 67 3d ae 4c 87 81 40 8b 78 ea d4 9b a8 67 40
       560.9124417111714 189.26902242465107
0000f0 c2 10 ab 1f 12 56 70 40 b2 58 bb af d9 7c 69 40
       261.3794247324223 203.90157305327517
000100 b2 e0 f4 f2 7d 2e 4a 40 6c 6d f4 0b 01 8c 3f 40
       52.36321865994377 31.54689097135035
000110 38 c5 6d b4 ec 93 f6 bf c4 c8 41 9a ac 99 77 40
       -1.411114411163295 377.6046392984101
000120 69 9d a7 04 41 3d 70 40 98 e2 a6 9b d1 59 25 40
       259.82837357973636 10.675427307244988
000130 1b 4a f2 cc 3a 63 43 40 d7 78 4f 8d 4e 9e 4f 40
       38.77523195105115 63.236772216610625
000140 48 e1 7a 14 ae 05 71 c0 18 cc 4b 31 35 09 6d 40
       -272.355 232.28774323276662
000150 99 a6 79 fd 57 ba 72 c0 b6 39 24 a4 02 bd 66 c0
       -299.6464819671615 -181.90657240939407
000160 0f 66 c7 74 a8 ac 60 40 a9 c2 88 65 5e c0 5d 40
       133.3955634970193 119.00576151233203
000170 2b 33 56 8a c6 5d 76 40 3b ca 26 61 1a 5c 3c 40
       357.8609717719252 28.35977751919766
000180 7c 13 1a 24 eb 03 7e 40 64 c5 0a 12 ff 24 1a 40
       480.2449074762915 6.536129266650594
000190 8b 8e f2 08 b3 99 60 40 34 90 b6 27 3f 02 6c 40
       132.80310485243203 224.0702093663873
0001a0 fd be e8 5d bc 17 6f 40 5e f2 22 f5 95 7b 61 c0
       248.741743998129 -139.86205536675965
0001b0 34 1d ea 06 36 b4 61 c0 b7 93 66 ea 93 d0 65 c0
       -141.6315950939694 -174.5180561068971
0001c0 1a 61 c5 48 40 75 67 40 00 00 00 00 00 00 e0 bf
       187.664097199923 -0.5
0001d0 00 00 00 00 00 00 e0 bf 71 3d 0a d7 a3 70 e1 bf
       -0.5 -0.545
0001e0 44 4b a9 90 d6 83 59 40 20 78 29 a9 b5 0b 55 40
       102.05997101338022 84.18296269464236
0001f0 b7 8b f3 aa b0 5c 6e 40 84 90 ef 62 16 c0 4a 40
       242.89656589095623 53.500683180785046
000200 62 f9 1b 84 52 bf 70 40 d0 ef 8c 34 88 59 55 40
       267.9576455204716 85.3989383102737
000210 ee 9b 0a 3f df 2a 47 40 f4 d6 b7 3c 96 cd 5e 40
       46.334937935047364 123.21229474976627
000220 97 87 64 aa 1b 75 65 40 ca d9 2c 4d 00 f2 63 c0
       171.65962714800546 -159.5625368000022
000230 48 e1 7a 14 ae 05 71 c0 26 85 09 eb 3e fb 5b c0
       -272.355 -111.92571521691988
000240 00 00 00 00 00 00 00 00 00 00 00 00 00 00 00 00
       0.0 0.0
000250 00 00 00 00 00 00 00 00 00 00 00 00 00 00 00 00
       0.0 0.0
000260 fa 33 45 14 b8 6c 34 c0 61 61 d2 29 79 ac 61 c0
       -20.424683825392982 -141.38979045
000270 4e a7 56 0e 26 ad 59 c0 00 00 00 00 00 20 59 c0
       -102.7054477545 -100.5
000280 84 9d 21 70 44 54 6a 40 66 3a 07 6c 2d 29 5d 40
       210.63335424962509 116.6433973379695
000290 12 e2 5b 90 d4 99 58 40 1d 33 2b b4 e1 fb 59 40
       98.40359887097318 103.93565086573331
0002a0 6a f0 99 55 4b ef 40 c0 40 41 28 6f 2f 75 3f c0
       -33.869486522832474 -31.457755038574078
0002b0 70 35 a6 25 52 5e 06 c0 fc 7f 17 35 f0 57 65 40
       -2.7960551205966837 170.74807219114143
0002c0 1e fc c2 1a 08 b4 63 c0 1e 68 ca 11 1f e6 67 c0
       -157.62598932345367 -191.19129266293106
0002d0 66 66 66 66 66 de 67 c0 10 bc da 26 8b 9e 55 40
       -190.95 86.47724315033724
0002e0 00 00 00 00 00 00 00 00 00 00 00 00 00 00 00 00
       0.0 0.0
0002f0 00 00 00 00 00 00 00 00 00 00 00 00 00 00 00 00
       0.0 0.0
000300 a0 1b b3 4f 74 93 fa bf 00 00 00 00 00 00 00 00
       -1.6609995949999998 0.0
000310 00 00 00 00 00 00 00 00 00 00 00 00 00 00 00 00
       0.0 0.0
