Sem4/SI/lab7/saved_models/FrozenLake/QAgent/run-2025-05-28_10-22-37/model_best.npy (npy, 928 bytes, 1 tensors)

array f8 [25, 4]
00000000: 0000 0000 0000 0000 0000 0000 0000 0000
00000010: 0000 0000 0000 0000 0000 0000 0000 0000
00000020: 750c dd30 c583 5440 e0ca dba8 99be 5540
00000030: 23db f97e 6abc e2bf b504 7d8b 1403 8c40
00000040: 7696 d81d 9e3a 3140 713d 0ad7 a370 e1bf
00000050: 407d 6914 4dcb 5140 42f3 e74c b218 8840
00000060: ee2c 58c5 5e9c 2240 a039 acce e873 2340
00000070: 9262 576b 5fb0 0340 d837 793c 1ca9 8340
00000080: fccb eec9 c3c2 f7bf c979 e3e8 e9fc 6f40
00000090: fccb eec9 c3c2 f7bf a8e8 482e ffa1 f0bf
000000a0: 0000 0000 0000 0000 0000 0000 0000 0000
000000b0: 0000 0000 0000 0000 0000 0000 0000 0000
000000c0: d26b 06a1 616b 8640 1e35 bf78 3e8d 5bc0
000000d0: 4179 bff2 7a7d 5dc0 6666 6666 66de 67c0
000000e0: 55d6 7348 9f81 8340 94f6 065f 98cc f1bf
000000f0: 1a1f 662f dbee f8bf 8bfd 65f7 e461 f2bf
00000100: f487 1015 6626 7840 d8a3 703d 0ad7 efbf
00000110: 70ea 2f26 70c7 2340 713d 0ad7 a370 e1bf
00000120: e453 0902 dcf2 6a40 0000 0000 0000 e0bf
00000130: 0000 0000 0000 e0bf 589c 3c08 453e 1340
00000140: 41c4 667d 2bce 66c0 6547 ec05 7781 7040
00000150: b5ea 048b b4a3 67c0 2c60 6197 55cd 64c0
00000160: 91f4 3a8c 9805 8140 8c44 f3ef 02ec 2cc0
00000170: 9097 d7c0 d5aa e6bf ac58 34da bd44 2fc0
00000180: 356a a5aa e08c 7f40 25cc 2f11 e69e 02c0
00000190: 38e7 f081 5103 04c0 3128 9edd 382a 02c0
000001a0: 6b56 35b9 b09d 66c0 6844 012d 21d0 66c0
000001b0: e265 4355 ee5b 3a40 83dd b6b0 cd9a 6cc0
000001c0: 5eda d90e 12f0 5440 a54e 4013 6143 02c0
000001d0: 6287 31e9 ef85 ffbf 0f11 faf4 88b6 24c0
000001e0: 10da 0529 99f0 febf 198f c0d1 e60d 3a40
000001f0: d36b d23d f40a 7440 fc39 f928 d665 4440
00000200: 0a1b 73fa 0e81 7940 8055 74b0 fd98 1b40
00000210: 20f9 e126 90c6 3e40 ea6f 3036 d04c 4440
00000220: 3f30 7178 e6ed 59c0 4e8a 85d1 b30d 60c0
00000230: 6666 6666 66de 67c0 077c c6ad af53 7040
00000240: 0000 0000 0000 0000 0000 0000 0000 0000
00000250: 0000 0000 0000 0000 0000 0000 0000 0000
00000260: ccd2 4ecd e546 e4bf a847 a3f0 26ed 40c0
00000270: 0000 0000 0020 59c0 0000 0000 0020 59c0
00000280: 2ad1 1e34 7688 7140 f45c 59a1 eddc 34c0
00000290: 9c4f 5c24 ead7 34c0 abf4 80a1 8bef 3340
000002a0: 9317 6a78 be07 7340 98b1 8e1d cbec 3bc0
000002b0: 083e ceca b78e 3fc0 b8b1 67fb 70d9 01c0
000002c0: e4da cefc f030 68c0 f0d2 925c 8b47 63c0
000002d0: 6666 6666 66de 67c0 a162 b38d 7e5f 6640
000002e0: 0000 0000 0000 0000 0000 0000 0000 0000
000002f0: 0000 0000 0000 0000 0000 0000 0000 0000
00000300: 2fc1 101a 9954 5cc0 4b4d 3cdc a6e3 59c0
00000310: 140e 1bd4 f292 51c0 6666 6666 66de 67c0
0.0 0.0 0.0 0.0 82.05891057574065 86.97812863792524 -0.5855 896.3850316779195
17.228975167634836 -0.545 71.17657957364736 771.08706074916 9.305410544408428 9.726385553859302 2.4611194978754805 629.1387872190635
-1.4850500000000002 255.90355343273976 -1.4850500000000002 -1.0395500000000002 0.0 0.0 0.0 0.0
717.4226704122214 -110.20693796799284 -117.96062916468237 -190.95 624.2027749109062 -1.11245 -1.5583145000000003 -1.1489
386.39992243249367 -0.9950000000000001 9.88952750525388 -0.545 215.5893564397985 -0.5 -0.5 4.810810211848626
-182.44280881950002 264.091558382954 -189.1157889457733 -166.4166981603497 544.6994862180601 -14.460959909864208 -0.7083538786362045 -15.634260958566607
504.8048502408522 -2.3275872557365056 -2.5016203071253607 -2.270616275204724 -180.92782268922323 -182.50404978034499 26.359105423883996 -228.83760867801547
83.75110217356402 -2.2829 -1.9701995 -10.3565136485345 -1.9337398149924674 26.054303273688763 320.6846292705133 40.795598146145466
408.06615681613096 6.899405247784102 30.775637083214974 40.60010411610695 -103.71719180158196 -128.42820049364167 -190.95 261.23039033444405
0.0 0.0 0.0 0.0 -0.6336545 -33.852750854231374 -100.5 -100.5
280.5288582996169 -20.86300095016209 -20.84341647390066 19.935724348052343 304.4840015548918 -27.924974295937858 -31.557491946556212 -2.2311725274105036
-193.5294174232614 -154.23576191593702 -190.95 178.9841984275454 0.0 0.0 0.0 0.0
-113.32184459339327 -103.55705934418545 -70.2960710777482 -190.95
