Sem4/SI/lab7/saved_models/FrozenLake/QAgent/run-2025-05-28_10-14-11/model_best.npy (npy, 928 bytes, 1 tensors)

array f8 [25, 4]
00000000: 0000 0000 0000 0000 0000 0000 0000 0000
00000010: 0000 0000 0000 0000 0000 0000 0000 0000
00000020: fa2a 4afc f0a1 7940 0000 0000 0000 0000
00000030: 6eba b0f1 e2eb 3c40 2dd6 6ba1 36e3 8d40
00000040: d5c9 36d8 10ff 5640 083d 9b55 9fab ecbf
00000050: af5e 7f4a 61a7 4a40 283e 3d93 2482 8940
00000060: 0c11 4b65 845a e5bf c751 305f a144 e4bf
00000070: 7412 9bfb e4c1 e0bf e082 6bee 73bb 8340
00000080: 107c 2b48 7d09 3540 8a9b 818b 427f 7240
00000090: 83a7 1e7b f1e5 4740 0000 0000 0000 0000
000000a0: 0000 0000 0000 0000 0000 0000 0000 0000
000000b0: 0000 0000 0000 0000 0000 0000 0000 0000
000000c0: 3eb0 b436 0d49 5ac0 52bf 0290 ff21 44c0
000000d0: 9b14 1348 134d 7d40 cdcc cccc cc9c 56c0
000000e0: 3793 242c f5be 8240 cb4d 4529 4f35 06c0
000000f0: b5f8 df07 37ae 3240 c913 c97c f05d 2c40
00000100: cccc cccc cccc dcbf 3e75 0d4f 273c 2840
00000110: d49c 2387 db6a 7140 e5a1 134b c1f1 3140
00000120: c3d2 47dd 4a37 7040 4f54 eb3f e933 1340
00000130: 0c9a cf49 ada9 4340 bef6 f573 8f70 3c40
00000140: 3f1d 8f19 28f5 6ec0 2164 c99a 7a17 70c0
00000150: 97a5 3e34 e5de 6a40 b877 7d99 9c0a 6fc0
00000160: 14a2 5aac d3c5 4040 56cd deb0 8167 2440
00000170: 29aa 96d5 53ed 7640 b80a 0ae9 ce03 0bc0
00000180: d460 607d 7de5 7940 08b4 2dfd e815 3140
00000190: 3663 076a 801d 23c0 489e caf5 13c7 3240
000001a0: 2811 4f19 a27d 6740 5eba 490c 02b7 56c0
000001b0: 3060 9e04 cb81 56c0 bf28 417f 21b9 56c0
000001c0: 3094 f584 42fd 6840 31de f4ff d198 d0bf
000001d0: cccc cccc cccc dcbf 9acc 7e7a 5097 db3f
000001e0: 7b44 469b ab6c 3cc0 8001 340b ab7f febf
000001f0: 7fe1 80c1 94f5 6e40 64cc 02d8 a1a9 39c0
00000200: 664f d5d0 4627 7340 8095 89cb c10a c33f
00000210: a0a8 644f 084d f7bf 3fa5 b273 8ff2 32c0
00000220: 95fe 3dda de76 60c0 9a46 4e9e b251 67c0
00000230: 8eaa 2688 3aa4 65c0 0eb9 3c61 9a70 4540
00000240: 0000 0000 0000 0000 0000 0000 0000 0000
00000250: 0000 0000 0000 0000 0000 0000 0000 0000
00000260: a4bb af90 00ca 63c0 d2ce d2a4 9787 54c0
00000270: 826f 0d79 e216 55c0 cdcc cccc cc9c 56c0
00000280: 26dd 707d 2b35 6a40 a92b ab6c 9e2f 3bc0
00000290: c053 4263 cc0d 3ac0 f56a f67c ce16 3bc0
000002a0: a2aa 4ee8 c384 7040 76c5 e453 6e78 3ec0
000002b0: 92bd 1873 b92e 41c0 0ce2 01df 60b6 3dc0
000002c0: 5587 49d6 5b63 6dc0 6624 9983 c1cf 6bc0
000002d0: 5078 9d12 7173 6dc0 8a74 b96a cc52 4140
000002e0: 0000 0000 0000 0000 0000 0000 0000 0000
000002f0: 0000 0000 0000 0000 0000 0000 0000 0000
00000300: 0000 0000 0000 0000 0000 0000 0000 0000
00000310: 0000 0000 0000 0000 0000 0000 0000 0000
0.0 0.0 0.0 0.0 410.1213343522246 0.0 28.921431642195266 956.4016750740753
91.98540311193877 -0.89595 53.307656585876764 816.2678589615434 -0.6672994593032242 -0.6333777293353301 -0.5236687578368007 631.4316070937457
21.037067900291788 295.9537463248058 47.79643191334528 0.0 0.0 0.0 0.0 0.0
-105.14143149991375 -40.2656116498389 468.81720740750615 -90.45 599.8697131020953 -2.776029894282805 18.680527202778382 14.183475398583953
-0.44999999999999996 12.117487402336902 278.678595675575 17.944355671208445 259.4557774358365 4.800694464434016 39.32560083996586 28.439688918638005
-247.661145 -257.46743277233514 214.96547901378355 -248.33161615853692 33.54552225518651 10.202161338040849 366.8329673657741 -3.3768594938458953
414.34313714645145 17.085586379678745 -9.557620347406196 18.777648317305903 187.92603745882775 -90.8595 -90.02801623789196 -90.8926695
199.91437004055615 -0.2593274116111131 -0.44999999999999996 0.4311104961627251 -28.424493508010055 -1.9061689794180836 247.6744086758808 -25.662625790293887
306.45478900265005 0.14876577795363843 -1.4563067532822416 -18.94750140296423 -131.71470367534917 -186.553054001696 -173.13214499999998 42.879711298608626
0.0 0.0 0.0 0.0 -158.31256899187895 -82.11863060557087 -84.35757280647343 -90.45
209.6615588383076 -27.18601111582726 -26.053899959271575 -27.089088258896442 264.2978289673721 -30.470433467247368 -34.36503447254212 -29.712415636024204
-235.10496057854712 -222.49237232122977 -235.60755282169202 34.646863308481514 0.0 0.0 0.0 0.0
0.0 0.0 0.0 0.0
