Sem4/SI/lab7/saved_models/FrozenLake/QAgent/run-2025-05-28_10-09-51/model_best.npy (npy, 928 bytes, 1 tensors)

array f8 [25, 4]
000000 00 00 00 00 00 00 00 00 00 00 00 00 00 00 00 00
       0.0 0.0
000010 00 00 00 00 00 00 00 00 00 00 00 00 00 00 00 00
       0.0 0.0
000020 66 07 90 5e c4 72 77 40 49 57 12 88 ac 62 68 40
       375.1729417444352 195.0835609777662
000030 63 ec 21 01 2d b6 64 40 fe ae 03 12 c6 1a 8d 40
       165.6929937040869 931.3467140472201
000040 97 f7 bb b0 19 3c 66 40 4d 2f 79 7c 93 a2 70 40
       177.87813603126844 266.1610073789387
000050 6f 18 fa 86 4e 2c 69 40 8a 85 3f d9 5f 46 88 40
       201.38458584639326 776.7968010866764
000060 48 06 63 c2 97 13 47 40 f6 fb 8e 06 d6 28 4f 40
       46.15306882701094 62.319031543556704
000070 d5 d9 0d f4 9d 8a 65 40 a2 02 00 7c 21 89 84 40
       172.33178141312843 657.1413497925571
000080 8e 82 c5 29 a6 d3 3f 40 4c 44 bf 6d 2b f7 4d 40
       31.826754198761186 59.93101283873747
000090 28 25 b2 89 7c b5 43 40 e8 50 56 55 21 d8 81 40
       39.417863094315464 571.0162760489884
0000a0 00 00 00 00 00 00 00 00 00 00 00 00 00 00 00 00
       0.0 0.0
0000b0 00 00 00 00 00 00 00 00 00 00 00 00 00 00 00 00
       0.0 0.0
0000c0 dc a5 d8 cf 3e 6d 4d c0 e6 1a 95 f7 2c ee 3b 40
       -58.85347936705122 27.93037364378224
0000d0 7b a8 88 60 fa 1a 82 40 85 77 dd 1b 32 90 58 c0
       579.3722544361511 -98.25305840137123
0000e0 ec 8b 3b 6f a5 ae 83 40 90 8c 76 c0 89 d3 5b 40
       629.8307785656048 111.30528270318086
0000f0 85 da 89 31 a7 18 63 40 e0 c4 9d 53 54 2b 43 40
       152.77040936398058 38.33851094440047
000100 08 7c 52 a3 f6 06 82 40 d6 0c 87 b2 44 3c 5f 40
       576.8704286998845 124.94169295490732
000110 17 fa ad e7 6e a8 3b 40 b2 f7 4b 5a a2 1c 46 40
       27.657942275976975 44.22370461186746
000120 a1 b0 93 aa 0b b9 84 40 0c 0b ae 47 6a 6a b1 bf
       663.1306964433935 -0.06803001642223822
000130 3b a3 a5 c8 d7 2f 18 40 d4 5c 79 2e 2f dd c9 3f
       6.0467215872857265 0.2020625092434104
000140 40 0c 53 d6 f1 95 70 c0 1c 24 a3 09 1c 4e 5b 40
       -265.37154228630607 109.22046128207916
000150 6d 2e dd ff 10 cc 6a c0 d9 c1 23 bd 19 c8 68 c0
       -214.3770751304577 -198.2531419466384
000160 ea 52 c6 e8 1e 2a 5b 40 a8 e0 a6 81 ab e8 5a 40
       108.65813655250136 107.6354679231323
000170 87 65 d8 66 d5 1a 7b 40 8f 91 77 8b 38 cc 17 c0
       433.6771000340454 -5.949434451268089
000180 5c 98 e7 25 59 10 7f 40 8a 65 af b3 a4 24 37 40
       497.0217646643339 23.143138151475377
000190 a8 c6 ba dd b3 6e 18 40 7c 66 37 a9 47 32 38 40
       6.108108009838965 24.1964059601073
0001a0 89 7a 6b 70 2f bd 7d 40 34 33 33 33 33 7f 58 c0
       475.8240818212876 -97.98750000000001
0001b0 e6 67 91 89 cc bc 52 c0 cd b7 35 50 6f 56 51 c0
       -74.94998397064009 -69.35054402585884
0001c0 fd 7e 16 c3 3e 3c 78 40 ba 10 ab 3f c2 c7 f2 bf
       387.765322769046 -1.173769234375
0001d0 31 1d 11 dc 84 76 f0 bf fd 16 ac a4 29 cd f0 bf
       -1.0289352985726732 -1.0500885422238178
0001e0 75 e6 6a d8 a7 19 3b c0 e5 dd 2c fc d1 5d 67 40
       -27.100217367266357 186.93188294184725
0001f0 58 f0 0a 94 d7 62 3b 40 f6 41 52 8a 52 be 2e 40
       27.386101963682762 15.371723482648104
000200 16 a8 5e c1 da 94 75 40 25 df 6c a5 3e ea 50 40
       345.3034070680163 67.66007362014768
000210 21 e7 60 b3 72 f3 46 40 84 04 e6 d9 9c 0d 49 40
       45.901937887492984 50.10634921771364
000220 f8 53 e3 a5 5b 9b 58 c0 f8 b6 8d a9 17 7e 5e c0
       -98.42746875 -121.97019423331574
000230 16 06 6e 79 27 35 4d c0 6c 1c d2 d5 1e f9 6b 40
       -58.41526716110472 223.78501406705197
000240 00 00 00 00 00 00 00 00 00 00 00 00 00 00 00 00
       0.0 0.0
000250 00 00 00 00 00 00 00 00 00 00 00 00 00 00 00 00
       0.0 0.0
000260 dc 48 1c a2 ee ba 32 40 ec db 49 44 20 d1 43 c0
       18.730203754334852 -39.633797203125
000270 73 f9 0f e9 b7 6f d1 bf 00 00 00 00 00 20 49 c0
       -0.27244375000000004 -50.25
000280 de fe 87 fe cd 2c 42 40 50 a3 ed c6 c2 c7 50 40
       36.350036446003045 67.12126324850874
000290 e2 21 14 e4 f9 3d 6b 40 73 89 b6 0a 35 d4 51 40
       217.936754264184 71.31573741746779
0002a0 ad 89 7b 3b a1 c2 70 40 6e 00 86 75 a2 c6 53 40
       268.1643633676238 79.10366571508504
0002b0 fe b2 86 91 f9 75 51 40 de 16 2e e3 13 89 50 40
       69.84335745004861 66.14183883191023
0002c0 88 8a 5b ae 1a a6 5e c0 98 9e 09 43 85 ce 60 c0
       -122.59537848414959 -134.45376731756983
0002d0 f4 fc c1 9e 34 27 5f c0 77 39 5c d3 e6 a1 66 40
       -124.612586678926 181.05942695629685
0002e0 00 00 00 00 00 00 00 00 00 00 00 00 00 00 00 00
       0.0 0.0
0002f0 00 00 00 00 00 00 00 00 00 00 00 00 00 00 00 00
       0.0 0.0
000300 cf 66 d5 e7 aa fc 48 c0 00 00 00 00 00 00 00 00
       -49.973965625 0.0
000310 00 00 00 00 00 00 00 00 00 00 00 00 00 00 00 00
       0.0 0.0
