Sem4/SI/lab7/saved_models/FrozenLake/QAgent/run-2025-05-28_10-24-12/model.npy (npy, 928 bytes, 1 tensors)

array f8 [25, 4]
000000 00 00 00 00 00 00 00 00 00 00 00 00 00 00 00 00
       0.0 0.0
000010 00 00 00 00 00 00 00 00 00 00 00 00 00 00 00 00
       0.0 0.0
000020 00 00 00 00 00 00 d0 bf 00 00 00 00 00 00 d0 bf
       -0.25 -0.25
000030 b8 1e 85 eb 51 b8 d0 bf 0f 73 49 d8 b1 a4 88 40
       -0.26125 788.5868383157957
000040 ec 51 b8 1e 85 eb df bf ec 51 b8 1e 85 eb df bf
       -0.49875 -0.49875
000050 ea c0 c2 41 da 57 5a 40 00 00 00 00 00 00 d0 bf
       105.37269634264854 -0.25
000060 44 3d 0f 3d 3f 08 f1 3f 52 b6 3e 5e 11 d3 e2 3f
       1.064513433946403 0.5882651177141247
000070 f2 f1 ca 73 44 bb 3c 40 cd fc be f5 41 ba 00 40
       28.731513249442237 2.090946121111847
000080 08 8e 81 aa ef 75 d9 3f 64 8a da f2 79 2c d4 3f
       0.3978232541178106 0.3152146216981804
000090 98 34 c5 cd 86 8c e1 3f 82 db 64 a5 bb c5 36 40
       0.5484041232063133 22.77239450180378
0000a0 00 00 00 00 00 00 00 00 00 00 00 00 00 00 00 00
       0.0 0.0
0000b0 00 00 00 00 00 00 00 00 00 00 00 00 00 00 00 00
       0.0 0.0
0000c0 b6 74 28 a3 af 04 81 40 1c 12 05 a5 1f 26 57 c0
       544.5857604179971 -92.5956814336318
0000d0 26 f6 62 34 66 4c 58 c0 4e e0 f5 c4 27 e8 53 c0
       -97.19373807586871 -79.6274273301253
0000e0 c4 67 36 94 34 45 55 40 1c 50 f4 cc dc ea fc bf
       85.08133416474362 -1.8073394781140513
0000f0 ac 9c f9 f5 8a 0b db bf be 1e 56 47 8a fd fb bf
       -0.42257951756477996 -1.7493994509294875
000100 6d c5 e5 df 3a a6 3e 40 28 ca 2e 46 6c 25 c6 3f
       30.649335855099185 0.17301705767529652
000110 fc a9 f1 d2 4d e2 df bf 5a 64 3b df 4f 4d e0 bf
       -0.4981875 -0.5094375
000120 7d f3 cd 6a 76 5f 32 40 70 b2 2e 5d af 5f cc bf
       18.372900653153454 -0.2216700749389875
000130 ec 51 b8 1e 85 eb df bf 4a 74 6c cb e5 84 dc bf
       -0.49875 -0.4456114279326512
000140 ca 76 be 9f 7a 4d 67 c0 82 df 8b 62 e8 d6 68 c0
       -186.42121875000004 -198.7158673030754
000150 f3 98 36 07 e8 c7 5a c0 61 17 16 38 ce 42 67 c0
       -107.1235368760279 -186.08767322840416
000160 dd c0 bc 2d 76 2e 3d c0 94 2c 77 6a 68 de 3c c0
       -29.18149076326596 -28.868780759902236
000170 fb 21 3a dd 05 4d 5a 40 d4 bc c6 1c 84 cc 3c c0
       105.20348292042756 -28.79889087535851
000180 b2 ea dd a1 5a ff 4e 40 cb 96 33 c0 a2 55 30 c0
       61.99495337806492 -16.33451462993143
000190 8a 81 99 25 f4 fb 2a c0 93 51 c7 0f 5d 34 2b c0
       -13.492097067822005 -13.602272503929987
0001a0 54 99 56 e4 fa fa 2f c0 b9 1e 85 eb d1 ea 61 c0
       -15.99019540364376 -143.33812500000002
0001b0 36 87 b4 b0 c6 4b 61 c0 a5 e7 7c 68 29 33 62 c0
       -138.36800418147476 -145.5988047065304
0001c0 67 cb f8 a3 a0 f4 16 40 08 b0 b7 71 7c 6d 15 c0
       5.738894044933523 -5.356920029484179
0001d0 3a df 2d 20 09 d2 13 c0 46 47 c0 30 1c 46 21 c0
       -4.955112936782649 -8.636933825942503
0001e0 b7 34 44 de cb 8c 49 c0 88 74 98 00 d0 21 18 c0
       -51.09997156458251 -6.033020028405311
0001f0 24 2f bb e7 9b a2 48 c0 54 a8 35 11 5c 8f 48 c0
       -49.27038284911967 -49.11999716873166
000200 4c 96 48 86 a4 bf 41 40 08 60 a2 db c1 96 42 c0
       35.4972083906583 -37.177791075024345
000210 27 54 fb 90 b7 25 43 c0 ae 7d 91 4b 5e fe 41 c0
       -38.294664499968626 -35.98725266078996
000220 08 81 15 b1 7e c0 61 c0 b6 1e 9c e9 03 4f 61 c0
       -142.01546529960638 -138.46922760479146
000230 b4 ad 39 f0 2d b0 61 c0 71 8e 53 9d 55 ed 2b c0
       -141.5056077124151 -13.963543812227018
000240 00 00 00 00 00 00 00 00 00 00 00 00 00 00 00 00
       0.0 0.0
000250 00 00 00 00 00 00 00 00 00 00 00 00 00 00 00 00
       0.0 0.0
000260 49 fe 8b 56 e4 25 49 c0 dc e7 4a a2 d8 ba fc 3f
       -50.29603082500086 1.7956167544893935
000270 60 f5 c7 41 1c d7 43 c0 00 00 00 00 00 20 49 c0
       -39.68054983390425 -50.25
000280 5e e7 63 62 8d 41 44 c0 0a 46 ee 8d bc 66 44 c0
       -40.51212720754732 -40.80262922415211
000290 c2 cb 1b fd bd 2b d7 bf 55 6a 6f 8d c8 96 45 c0
       -0.3620448085559326 -43.177995376016646
0002a0 be 90 49 17 c2 83 23 40 5b 43 2e 93 11 91 43 c0
       9.757340171556617 -39.13334884413663
0002b0 73 32 69 fa 95 60 45 c0 79 2c cb bd c2 e5 46 c0
       -42.754576970449214 -45.79500553532211
0002c0 e5 c3 3d 7b 87 2e 67 c0 d6 00 6b bc c9 f9 64 c0
       -185.45403825820463 -167.80587597750736
0002d0 ca 76 be 9f 7a 4d 67 c0 b1 ab aa d7 7c 70 42 c0
       -186.42121875000004 -36.87880988915948
0002e0 00 00 00 00 00 00 00 00 00 00 00 00 00 00 00 00
       0.0 0.0
0002f0 00 00 00 00 00 00 00 00 00 00 00 00 00 00 00 00
       0.0 0.0
000300 61 f9 6c 75 30 4e 56 c0 9b ef 8e 9d 11 60 56 c0
       -89.22170768396383 -89.50107516249265
000310 44 6f a2 a5 83 17 4a c0 34 33 33 33 33 7f 58 c0
       -52.18370504790667 -97.98750000000001
