Sem4/SI/lab7/saved_models/FrozenLake/QAgent/run-2025-05-28_10-24-12/model_best.npy (npy, 928 bytes, 1 tensors)

array f8 [25, 4]
0.0 0.0 0.0 0.0 -0.25 -0.25 -0.26125 946.960781835666
-0.49875 -0.49875 111.12418152378338 -0.25 -0.25 -0.25 45.71348140140633 0.0
0.3978232541178106 0.3152146216981804 0.5484041232063133 30.12742841655696 0.0 0.0 0.0 0.0
682.4611718259212 -92.5956814336318 -97.19373807586871 -79.6274273301253 131.33406093262482 -1.8073394781140513 -1.6316979621454073 -1.7493994509294875
37.78371901562881 -0.49875 -0.4981875 -0.5094375 19.791372604021923 -0.519590625 -0.49875 -0.4456114279326512
-186.42121875000004 -198.7158673030754 -133.07316410697678 -186.08767322840416 -29.18149076326596 -28.868780759902236 149.3110685317315 -28.79889087535851
94.75339524777901 -16.33451462993143 -13.492097067822005 -13.602272503929987 -128.3774993686603 -143.33812500000002 -138.36800418147476 -5.721738203257204
6.326629561021565 -3.628436946066457 -2.673574943406184 -3.033822882812501 -51.09997156458251 32.15742500497337 -49.27038284911967 -49.11999716873166
77.06889274091355 -39.91978731266305 -38.294664499968626 -37.561210048981266 -142.01546529960638 -138.46922760479146 -141.5056077124151 45.47907362494988
0.0 0.0 0.0 0.0 -50.29603082500086 -33.98375719007322 13.946441514689507 -50.25
-43.10540330332183 -43.07528145788791 42.23720165810124 -43.177995376016646 50.58193116471396 -39.13334884413663 -44.42538664293451 -45.79500553532211
-185.45403825820463 -167.80587597750736 -186.42121875000004 -3.336639574521238 0.0 0.0 0.0 0.0
1.2694835087834875 0.0 0.0 0.0
00000000: 0000 0000 0000 0000 0000 0000 0000 0000
00000010: 0000 0000 0000 0000 0000 0000 0000 0000
00000020: 0000 0000 0000 d0bf 0000 0000 0000 d0bf
00000030: b81e 85eb 51b8 d0bf 3616 63ae af97 8d40
00000040: ec51 b81e 85eb dfbf ec51 b81e 85eb dfbf
00000050: b1da 0f97 f2c7 5b40 0000 0000 0000 d0bf
00000060: 0000 0000 0000 d0bf 0000 0000 0000 d0bf
00000070: 16ac ca5b 53db 4640 0000 0000 0000 0000
00000080: 088e 81aa ef75 d93f 648a daf2 792c d43f
00000090: 9834 c5cd 868c e13f 76b1 1126 9f20 3e40
000000a0: 0000 0000 0000 0000 0000 0000 0000 0000
000000b0: 0000 0000 0000 0000 0000 0000 0000 0000
000000c0: 58b1 da7a b053 8540 1c12 05a5 1f26 57c0
000000d0: 26f6 6234 664c 58c0 4ee0 f5c4 27e8 53c0
000000e0: d68f 8da0 b06a 6040 1c50 f4cc dcea fcbf
000000f0: 76d4 8552 6f1b fabf be1e 5647 8afd fbbf
00000100: 85b0 9ae7 50e4 4240 ec51 b81e 85eb dfbf
00000110: fca9 f1d2 4de2 dfbf 5a64 3bdf 4f4d e0bf
00000120: 7a39 1d65 97ca 3340 c6dc b584 7ca0 e0bf
00000130: ec51 b81e 85eb dfbf 4a74 6ccb e584 dcbf
00000140: ca76 be9f 7a4d 67c0 82df 8b62 e8d6 68c0
00000150: 9ad6 405c 57a2 60c0 6117 1638 ce42 67c0
00000160: ddc0 bc2d 762e 3dc0 942c 776a 68de 3cc0
00000170: 4053 fe45 f4a9 6240 d4bc c61c 84cc 3cc0
00000180: 0d8b b3a0 37b0 5740 cb96 33c0 a255 30c0
00000190: 8a81 9925 f4fb 2ac0 9351 c70f 5d34 2bc0
000001a0: 0355 8e79 140c 60c0 b91e 85eb d1ea 61c0
000001b0: 3687 b4b0 c64b 61c0 d10d ed56 0fe3 16c0
000001c0: 53fa c9fa 774e 1940 dea0 17f3 0907 0dc0
000001d0: 49ad 8a42 7b63 05c0 004a 7cee 4445 08c0
000001e0: b734 44de cb8c 49c0 75f7 a780 2614 4040
000001f0: 242f bbe7 9ba2 48c0 54a8 3511 5c8f 48c0
00000200: f449 19bd 6844 5340 ee94 3597 bbf5 43c0
00000210: 2754 fb90 b725 43c0 d247 1bbb d5c7 42c0
00000220: 0881 15b1 7ec0 61c0 b61e 9ce9 034f 61c0
00000230: b4ad 39f0 2db0 61c0 99c4 d748 52bd 4640
00000240: 0000 0000 0000 0000 0000 0000 0000 0000
00000250: 0000 0000 0000 0000 0000 0000 0000 0000
00000260: 49fe 8b56 e425 49c0 e048 6fc1 ebfd 40c0
00000270: 1656 72fb 93e4 2b40 0000 0000 0020 49c0
00000280: 2d54 feda 7d8d 45c0 d8cf a3d2 a289 45c0
00000290: 080d ba9f 5c1e 4540 556a 6f8d c896 45c0
000002a0: 1d7c 6cb8 7c4a 4940 5b43 2e93 1191 43c0
000002b0: 8cc7 cb11 7336 46c0 792c cbbd c2e5 46c0
000002c0: e5c3 3d7b 872e 67c0 d600 6bbc c9f9 64c0
000002d0: ca76 be9f 7a4d 67c0 55dd d816 70b1 0ac0
000002e0: 0000 0000 0000 0000 0000 0000 0000 0000
000002f0: 0000 0000 0000 0000 0000 0000 0000 0000
00000300: 2095 90f0 cd4f f43f 0000 0000 0000 0000
00000310: 0000 0000 0000 0000 0000 0000 0000 0000
