Sem4/SI/lab7/saved_models/FrozenLake/QAgent/run-2025-05-28_10-23-47/model.npy (npy, 928 bytes, 1 tensors)

array f8 [25, 4]
0.0 0.0 0.0 0.0 707.1183186234746 0.0 0.0 0.0
-1.98 -1.98 -1.2378791689052475 457.4304885394544 -1.98 -1.8 190.43305940446794 -1.0
-1.0 -0.8439164453757333 -1.0 134.96698525989473 0.0 0.0 0.0 0.0
-463.8086289323738 -457.89685183779727 221.5568876485375 -490.44000000000005 285.94744833514636 -1.98 14.079577202692839 -2.0699782220713336
160.6551250946175 -27.629150240631084 -36.316849078430224 -36.48149177454188 -1.1975421567536475 -1.3828989663820863 -1.9841922315067744 104.59456519521761
-428.6147394924404 -157.48540230022368 -507.8949085235771 -426.67302658367703 -72.82068164177497 -77.65634599733897 135.78545104548974 -87.44928947623275
156.68380869360476 -51.33165603522447 -49.46772577928435 -56.59896133053731 12.2895743883312 -361.8 -392.853056713771 -406.5154677492002
-11.03182162654101 -44.74549344060618 -62.200570085271195 -61.4311339882371 -132.83565553498156 -61.31970443560264 -118.14598331645017 -130.9561747775886
81.83035211012975 -87.05221415250531 -74.2283992113873 -77.60671325933107 -271.7825911992891 -363.0703349538626 -466.28585358850114 -1.0896041152098803
0.0 0.0 0.0 0.0 -333.69236169421913 -336.451136 -364.66382417231097 -361.8
-69.66938421276774 -72.19486804421128 -71.56188278630985 -42.628097204141774 -173.36334147468244 -170.2579584433244 -170.64572173359144 -7.303069874230044
-453.517205293521 -466.94846528122935 -488.5072 -135.88837966530818 0.0 0.0 0.0 0.0
-7.314361349651389 0.0 0.0 0.0
00000000: 0000 0000 0000 0000 0000 0000 0000 0000
00000010: 0000 0000 0000 0000 0000 0000 0000 0000
00000020: a6d2 0851 f218 8640 0000 0000 0000 0000
00000030: 0000 0000 0000 0000 0000 0000 0000 0000
00000040: ae47 e17a 14ae ffbf ae47 e17a 14ae ffbf
00000050: 2c90 2d63 5ace f3bf 2764 f347 e396 7c40
00000060: ae47 e17a 14ae ffbf cdcc cccc cccc fcbf
00000070: 486d 659f dbcd 6740 0000 0000 0000 f0bf
00000080: 0000 0000 0000 f0bf 4440 ae0f 5d01 ebbf
00000090: 0000 0000 0000 f0bf c85e 128b f1de 6040
000000a0: 0000 0000 0000 0000 0000 0000 0000 0000
000000b0: 0000 0000 0000 0000 0000 0000 0000 0000
000000c0: 5132 e424 f0fc 7cc0 260b 5081 599e 7cc0
000000d0: 7ac0 0b06 d2b1 6b40 d8a3 703d 0aa7 7ec0
000000e0: a7e1 95bf 28df 7140 ae47 e17a 14ae ffbf
000000f0: 5425 d657 be28 2c40 2ed4 f9bd 508f 00c0
00000100: 7905 e7c8 f614 6440 f2c7 7bfd 0fa1 3bc0
00000110: 12d0 b682 8e28 42c0 a679 c085 a13d 42c0
00000120: 5b69 edf6 2129 f3bf 4088 a4aa 5a20 f6bf
00000130: 1ec8 745a 40bf ffbf 2b33 2d5b 0d26 5a40
00000140: 75f9 13f9 d5c9 7ac0 a59b 676a 88af 63c0
00000150: ce9a 998b 51be 7fc0 b4e3 85b7 c4aa 7ac0
00000160: 78f6 4a0c 8634 52c0 9c5b a492 016a 53c0
00000170: 991f 3b6a 22f9 6040 d3b6 a528 c1dc 55c0
00000180: 18f8 c4c2 e195 6340 b267 78b4 73aa 49c0
00000190: dec2 3670 debb 48c0 fa1c cfc3 aa4c 4cc0
000001a0: 8e48 1f18 4394 2840 cdcc cccc cc9c 76c0
000001b0: 7af4 cb1e a68d 78c0 524f 1c5b 3f68 79c0
000001c0: 2c99 9aec 4a10 26c0 9e64 3d54 6c5f 46c0
000001d0: da65 d247 ac19 4fc0 11d6 0566 2fb7 4ec0
000001e0: f32e adb0 bd9a 60c0 55a6 2f13 eca8 4ec0
000001f0: 917a 68ca 5789 5dc0 19e0 d8fb 985e 60c0
00000200: 004b 2d7d 2475 5440 8459 077a 57c3 55c0
00000210: cdd5 b917 9e8e 52c0 19b8 d963 d466 53c0
00000220: 5871 597e 85fc 70c0 b069 8b17 20b1 76c0
00000230: e860 36db 9224 7dc0 809d 86b9 046f f1bf
00000240: 0000 0000 0000 0000 0000 0000 0000 0000
00000250: 0000 0000 0000 0000 0000 0000 0000 0000
00000260: ca1a dbe9 13db 74c0 c6e0 61da 3707 75c0
00000270: eb65 1806 9fca 76c0 cdcc cccc cc9c 76c0
00000280: f492 e130 d76a 51c0 113b d1b7 780c 52c0
00000290: b7d8 37e3 f5e3 51c0 bd3f 3b7d 6550 45c0
000002a0: 54e1 4c7e a0ab 65c0 c6b9 1032 4148 65c0
000002b0: ef02 a0c0 a954 65c0 2ce2 f8f2 5736 1dc0
000002c0: dacf 0e79 4658 7cc0 5844 eee9 2c2f 7dc0
000002d0: 8048 bf7d 1d88 7ec0 c31d 319b 6dfc 60c0
000002e0: 0000 0000 0000 0000 0000 0000 0000 0000
000002f0: 0000 0000 0000 0000 0000 0000 0000 0000
00000300: 3c84 0ff1 e741 1dc0 0000 0000 0000 0000
00000310: 0000 0000 0000 0000 0000 0000 0000 0000
