Sem4/SI/lab7/saved_models/FrozenLake/QAgent/run-2025-05-28_10-30-51/model.npy (npy, 928 bytes, 1 tensors)

array f8 [25, 4]
0	0x0000000000000000	0.0
1	0x0000000000000000	0.0
2	0x0000000000000000	0.0
3	0x0000000000000000	0.0
4	0xbfb999999999999a	-0.1
5	0xbfb999999999999a	-0.1
6	0xbfba0f9096bb98c8	-0.1018
7	0x408c95e139f4bec0	914.7349738236153
8	0xbfc9930be0ded289	-0.1998
9	0xbfd30c798b0658e0	-0.2976364
10	0xbfc9930be0ded289	-0.1998
11	0x4084d690450eb379	666.8204442165871
12	0xbfd2ef0ae536501e	-0.29584
13	0xbfd30bf1a5ca2984	-0.297604
14	0x404c0d333a2816a7	56.103125829290825
15	0xbfd2db87fb8c7dd2	-0.29464912
16	0xbfc9ccd962068556	-0.20156400000000002
17	0x4040ee73bb765a68	33.862906868734
18	0xbfc9930be0ded289	-0.1998
19	0xbfc0a0067c383840	-0.12988358560000002
20	0x0000000000000000	0.0
21	0x0000000000000000	0.0
22	0x0000000000000000	0.0
23	0x0000000000000000	0.0
24	0x4082f47e1060e91e	606.5615546771185
25	0xc03432b020c49ba6	-20.198
26	0xc03498bcee820bc0	-20.596632868527877
27	0xc03419999999999a	-20.1
28	0xbfebbf45eec1470c	-0.8670987761672406
29	0xbfeafe2ca7184079	-0.8435271514481563
30	0x405dce0fe141ca92	119.21971923279696
31	0xbfecd72c05868e7f	-0.901266108314715
32	0xbfb999999999999a	-0.1
33	0xbfb999999999999a	-0.1
34	0x4046af833261ab6d	45.37119130867982
35	0xbfba832b990afe61	-0.103564
36	0x40456d3e59a82667	42.85346527777147
37	0x3fe9ba9262badd95	0.8040248802489481
38	0x0000000000000000	0.0
39	0x0000000000000000	0.0
40	0xc04d7d3e564ef294	-58.97846487860548
41	0xc04a988a49d88a62	-53.19172022889394
42	0x405f172cc2427e45	124.362106862006
43	0xc04beea5d9450077	-55.86443630093793
44	0x407c7310985418fc	455.19155152178405
45	0xc00bc7d04e30c4cd	-3.472565279830269
46	0xc00bc129dfff15ff	-3.469318151447396
47	0xc00c7a3c75a7b0df	-3.559685630016346
48	0xc002202fe26761e8	-2.2657163322257823
49	0xc004f28131cccbe6	-2.618410481512444
50	0xc004707aab883470	-2.5549214745465676
51	0x407286d4eef5e5f8	296.4269857030299
52	0xc034b237c35df69c	-20.69616337818171
53	0xc044149ee14858fe	-40.16109863312339
54	0xc040f75538d9c82a	-33.932288271273435
55	0x405cc551fd487715	115.0831292350452
56	0x40487bdf118aea8e	48.96774501116771
57	0x0000000000000000	0.0
58	0x0000000000000000	0.0
59	0x0000000000000000	0.0
60	0xc0250605f4763ffe	-10.511764182505427
61	0xc0245d0721e38bd8	-10.18169504072823
62	0x406f32274a11caf1	249.56729606127877
63	0xc024653df9015f60	-10.197738439004468
64	0x4074823da97b1e94	328.14005420774015
65	0xbff333f6b59aa780	-1.2001864522848962
66	0xc01671dc70d8ef82	-5.611192477455804
67	0xc015e743c5e272b1	-5.475844470926561
68	0xc04b946413a6382c	-55.15930410019095
69	0xc047153742c500c6	-46.165748926346666
70	0xc04ce94dadb6855c	-57.82268306171565
71	0x40685bb676781275	194.86602328731138
72	0x0000000000000000	0.0
73	0x0000000000000000	0.0
74	0x0000000000000000	0.0
75	0x0000000000000000	0.0
76	0xc033809bc2fec2eb	-19.502376734922034
77	0xc01ae0ba12e1e438	-6.719459815060922
78	0xc034e9f0f707e3b3	-20.913833083559165
79	0xc03419999999999a	-20.1
80	0xc026650f79ec7af3	-11.197383699528904
81	0xc02657df657d2af4	-11.171626254586478
82	0x406933b2224bd49f	201.6154948693338
83	0xc0264f5c0fcf34aa	-11.154999250453631
84	0x406e690db92ec4a8	243.2829252160493
85	0xc011ad2d1fe569fa	-4.419117449166601
86	0xc022a580a32c0721	-9.323247050404065
87	0xc0227b2c9c883ad6	-9.240574733380907
88	0x4051d871369e3752	71.38190999460974
89	0xc04cf4eb0c15ad4c	-57.91342307146496
90	0xc04d7457defdeeae	-58.90893161200562
91	0xc04abffbf386c927	-53.49987644273124
92	0x0000000000000000	0.0
93	0x0000000000000000	0.0
94	0x0000000000000000	0.0
95	0x0000000000000000	0.0
96	0xc043b6c92b96e656	-39.42801422947075
97	0xc034f2d80a6514de	-20.94860901801882
98	0xc032ff61987483f6	-18.99758293957344
99	0xc043e624dd2f1aa0	-39.798
