Sem4/SI/lab7/saved_models/FrozenLake/QAgent/run-2025-05-28_10-37-04/model_best.npy (npy, 928 bytes, 1 tensors)

array f8 [25, 4]
0.0 0.0 0.0 0.0 337.90997325905045 146.05947918904832 80.62437941721184 950.9099391401071
18.597913139261276 51.36007353589516 84.36311876097936 700.7429606803391 33.73643749569891 40.05517445618825 75.3782837824089 421.46035195755036
21.07133549110116 34.270986486186565 15.358301135327679 189.005389224674 0.0 0.0 0.0 0.0
630.1346903010815 -241.63604889841218 83.1164586368331 -272.75230500000004 533.5696992277174 42.03247044114966 -2.0305025544232707 -1.9268215379410698
147.66444429315987 -4.02041377027445 -0.5 10.752423247092628 186.7601569198516 -0.45373073309221623 0.968111815357531 0.4973995303485442
-190.95 113.66022931547164 -195.1502052605603 -171.94096560536582 412.216093236676 27.83817146092445 56.61634509511794 122.7965166136046
-2.5549350346315016 -2.5522060383898433 3.880805762133564 345.1085227193169 -95.5839302001534 -136.20346618323612 35.469066366676586 -95.49447103338912
93.89377709397593 -0.5 -0.5 -0.545 -8.609059747251326 -27.33854247741263 269.18740359861687 -28.214519862830294
315.45498606991043 17.399609955658907 85.07848589768452 81.46004120712423 -127.01416940886493 -141.3960108391487 -191.8460419811205 248.65153106146326
0.0 0.0 0.0 0.0 -100.5 -100.5 0.0 0.0
31.30950444941706 27.107621568330476 235.7473847311494 43.41194679310392 265.0805246599102 -19.39528452573165 44.6774925896609 23.715845115688477
-152.23988884540503 -175.62816546149685 -190.95 214.8773516994735 0.0 0.0 0.0 0.0
0.0 0.0 0.0 0.0
00000000: 0000 0000 0000 0000 0000 0000 0000 0000
00000010: 0000 0000 0000 0000 0000 0000 0000 0000
00000020: b3bd 1e40 8f1e 7540 2a78 e640 e741 6240
00000030: 1b4e 16d5 f527 5440 e200 2c8e 47b7 8d40
00000040: d3f9 e2d5 1099 3240 9369 bee3 16ae 4940
00000050: 1bbe 7856 3d17 5540 2a82 5e95 f1e5 8540
00000060: 98c9 7795 43de 4040 9973 e2f4 0f07 4440
00000070: 6b83 2ecd 35d8 5240 41a5 039a 5d57 7a40
00000080: d652 f10a 4312 3540 25ea 67af af22 4140
00000090: 40b4 143f 73b7 2e40 38f7 0526 2ca0 6740
000000a0: 0000 0000 0000 0000 0000 0000 0000 0000
000000b0: 0000 0000 0000 0000 0000 0000 0000 0000
000000c0: de31 82d8 13b1 8340 ca2a 3883 5a34 6ec0
000000d0: 3c22 ed0e 74c7 5440 e1b9 f770 090c 71c0
000000e0: d2fc 77be 8eac 8040 8969 cdfd 2704 4540
000000f0: 0d8a 8d1f 783e 00c0 10f7 2ad2 42d4 febf
00000100: 56a4 ad20 4375 6240 06de ee58 e714 10c0
00000110: 0000 0000 0000 e0bf a306 ae9e 3d81 2540
00000120: e7d2 9a34 5358 6740 1c8e f4a0 ec09 ddbf
00000130: fe9d 3aa1 c5fa ee3f ee22 f9d6 64d5 df3f
00000140: 6666 6666 66de 67c0 ea73 7532 416a 5c40
00000150: 6639 437b ce64 68c0 a0b6 e663 1c7e 65c0
00000160: 9086 2e1e 75c3 7940 6e1c a567 92d6 3b40
00000170: 714a 6565 e44e 4c40 c189 d120 fab2 5e40
00000180: e82c 89c7 8170 04c0 064e dcff ea6a 04c0
00000190: a4ef 33e4 e30b 0f40 6da5 5182 bc91 7540
000001a0: 8f33 c61c 5fe5 57c0 ea5a 83cb 8206 61c0
000001b0: c643 e05d 0abc 4140 704e d569 a5df 57c0
000001c0: 9822 d7a4 3379 5740 0000 0000 0000 e0bf
000001d0: 0000 0000 0000 e0bf 713d 0ad7 a370 e1bf
000001e0: 4a82 dfad d637 21c0 48cb 44b8 aa56 3bc0
000001f0: 6573 ea9a ffd2 7040 d232 13c6 ea36 3cc0
00000200: 6a26 799f 47b7 7340 05b6 8ad6 4c66 3140
00000210: 24f0 b6e9 0545 5540 4dda ac50 715d 5440
00000220: 6deb ce26 e8c0 5fc0 2a60 ec1e acac 61c0
00000230: 94fe a1c6 12fb 67c0 032a ab57 d914 6f40
00000240: 0000 0000 0000 0000 0000 0000 0000 0000
00000250: 0000 0000 0000 0000 0000 0000 0000 0000
00000260: 0000 0000 0020 59c0 0000 0000 0020 59c0
00000270: 0000 0000 0000 0000 0000 0000 0000 0000
00000280: 7736 00af 3b4f 3f40 d952 4c16 8d1b 3b40
00000290: 203a 6293 ea77 6d40 6609 2aac bab4 4540
000002a0: 60cd 39d4 4991 7040 dfa1 de5d 3165 33c0
000002b0: 1ef0 c113 b856 4640 23e2 20a0 41b7 3740
000002c0: 1336 5f2b ad07 63c0 6233 74ee 19f4 65c0
000002d0: 6666 6666 66de 67c0 850a df43 13dc 6a40
000002e0: 0000 0000 0000 0000 0000 0000 0000 0000
000002f0: 0000 0000 0000 0000 0000 0000 0000 0000
00000300: 0000 0000 0000 0000 0000 0000 0000 0000
00000310: 0000 0000 0000 0000 0000 0000 0000 0000
