Sem4/SI/lab7/saved_models/FrozenLake/QAgent/run-2025-05-28_10-37-04/model.npy (npy, 928 bytes, 1 tensors)

array f8 [25, 4]
00000000: 0000 0000 0000 0000 0000 0000 0000 0000
00000010: 0000 0000 0000 0000 0000 0000 0000 0000
00000020: 8997 876d 9774 7a40 0641 138a 5730 7840
00000030: 3de2 fae9 926b 7340 54dd aa7f ab47 8e40
00000040: d3f9 e2d5 1099 3240 9369 bee3 16ae 4940
00000050: 470a 934a 5d9a 6040 3ddf 42d7 15ea 8840
00000060: 98c9 7795 43de 4040 9973 e2f4 0f07 4440
00000070: f441 8e73 03e1 5940 a536 277f 74ce 8440
00000080: d652 f10a 4312 3540 25ea 67af af22 4140
00000090: 40b4 143f 73b7 2e40 4e92 7d01 fe7b 7e40
000000a0: 0000 0000 0000 0000 0000 0000 0000 0000
000000b0: 0000 0000 0000 0000 0000 0000 0000 0000
000000c0: 5284 1001 3530 8640 1778 310b bfa7 66c0
000000d0: 4536 d8c1 df57 6b40 e1b9 f770 090c 71c0
000000e0: 7a4d da91 c4f2 8340 8969 cdfd 2704 4540
000000f0: 0d8a 8d1f 783e 00c0 10f7 2ad2 42d4 febf
00000100: fe1d 5e1c 57c0 7a40 06de ee58 e714 10c0
00000110: 0000 0000 0000 e0bf a306 ae9e 3d81 2540
00000120: 582c d1fe d931 7b40 1c8e f4a0 ec09 ddbf
00000130: fe9d 3aa1 c5fa ee3f ee22 f9d6 64d5 df3f
00000140: 6666 6666 66de 67c0 271c 4c13 4226 6a40
00000150: 6639 437b ce64 68c0 a0b6 e663 1c7e 65c0
00000160: 2842 30a1 9af8 7f40 2948 65f9 950e 4b40
00000170: 70db f01d 1fba 5a40 3c8f b907 bc38 6440
00000180: e82c 89c7 8170 04c0 064e dcff ea6a 04c0
00000190: a4ef 33e4 e30b 0f40 8e33 ae53 4662 7440
000001a0: 8f33 c61c 5fe5 57c0 ea5a 83cb 8206 61c0
000001b0: dd10 8d2f 0650 60c0 0182 3a05 1749 5740
000001c0: b903 0e8d 6144 6740 0000 0000 0000 e0bf
000001d0: 0000 0000 0000 e0bf 713d 0ad7 a370 e1bf
000001e0: 4a82 dfad d637 21c0 6005 a598 3756 07c0
000001f0: 9c45 df32 64af 7340 16b8 4785 b522 3540
00000200: 669f 2be0 3015 7840 1a62 9200 d82a 5440
00000210: f421 777f b440 5d40 01c4 2cce 610f 5b40
00000220: 6deb ce26 e8c0 5fc0 2a60 ec1e acac 61c0
00000230: 94fe a1c6 12fb 67c0 a8cc 7181 ffd2 5840
00000240: 0000 0000 0000 0000 0000 0000 0000 0000
00000250: 0000 0000 0000 0000 0000 0000 0000 0000
00000260: 0000 0000 0020 59c0 0000 0000 0020 59c0
00000270: 0000 0000 0000 0000 0000 0000 0000 0000
00000280: b08b 69e8 9873 4a40 75b0 aded 4bf5 6040
00000290: dec6 cab0 3c47 7240 9a28 e667 2c37 5340
000002a0: 86f6 1ab6 bf9b 7440 2923 f5c8 bdf6 3340
000002b0: ba36 cd46 5b59 5840 ff5e e2c3 85cb 6040
000002c0: bab6 fe08 96ff 5bc0 0dfb a95a 968e 61c0
000002d0: 6666 6666 66de 67c0 155f e667 97a3 7040
000002e0: 0000 0000 0000 0000 0000 0000 0000 0000
000002f0: 0000 0000 0000 0000 0000 0000 0000 0000
00000300: 0000 0000 0000 0000 0000 0000 0000 0000
00000310: 0000 0000 0000 0000 0000 0000 0000 0000
0.0 0.0 0.0 0.0 423.2869696899948 387.0213719131574 310.7233676719805 968.9587396000666
18.597913139261276 51.36007353589516 132.82388809889582 797.2606644844415 33.73643749569891 40.05517445618825 103.51583565609309 665.8068831504394
21.07133549110116 34.270986486186565 15.358301135327679 487.7495131402146 0.0 0.0 0.0 0.0
710.025880936659 -181.24207076703962 218.74606411198525 -272.75230500000004 638.3459813170332 42.03247044114966 -2.0305025544232707 -1.9268215379410698
428.0212672878696 -4.02041377027445 -0.5 10.752423247092628 435.1157215281323 -0.45373073309221623 0.968111815357531 0.4973995303485442
-190.95 209.19556584229687 -195.1502052605603 -171.94096560536582 511.5377513775916 54.11395184941677 106.90814922829827 161.77295290224163
-2.5549350346315016 -2.5522060383898433 3.880805762133564 326.142169647669 -95.5839302001534 -136.20346618323612 -130.5007550959771 93.1420300551763
186.13690808045592 -0.5 -0.5 -0.545 -8.609059747251326 -2.9170982289657985 314.9619625779685 21.13558228493647
385.3244325355539 80.66943373007999 117.01101671823545 108.2403445660748 -127.01416940886493 -141.3960108391487 -191.8460419811205 99.29684482682444
0.0 0.0 0.0 0.0 -100.5 -100.5 0.0 0.0
52.9031038775787 135.6655186073655 292.4523170395822 76.86208531834055 329.7343045285455 19.963833389137253 97.39619607963951 134.36007875645734
-111.99353241800682 -140.4558537788329 -190.95 266.22446432103 0.0 0.0 0.0 0.0
0.0 0.0 0.0 0.0
