Sem4/SI/lab7/saved_models/FrozenLake/QAgent/run-2025-05-28_10-24-43/model_best.npy (npy, 928 bytes, 1 tensors)

array f8 [25, 4]
000000 00 00 00 00 00 00 00 00 00 00 00 00 00 00 00 00
       0.0 0.0
000010 00 00 00 00 00 00 00 00 00 00 00 00 00 00 00 00
       0.0 0.0
000020 d8 a3 70 3d 0a d7 ef bf c5 20 b0 72 68 91 f0 bf
       -0.9950000000000001 -1.0355
000030 71 3d 0a d7 a3 70 e1 bf a9 f3 38 a8 c8 98 8d 40
       -0.545 947.0979771088943
000040 fc cb ee c9 c3 c2 f7 bf fe f9 b7 ce 85 4d 73 40
       -1.4850500000000002 308.84516784540017
000050 40 35 5e ba 49 0c f7 bf 22 fd f6 75 e0 1c f7 bf
       -1.4405000000000001 -1.44455
000060 d8 a3 70 3d 0a d7 ef bf d8 a3 70 3d 0a d7 ef bf
       -0.9950000000000001 -0.9950000000000001
000070 bd 7a cc b3 c5 11 5a 40 00 00 00 00 00 00 e0 bf
       104.27769179314323 -0.5
000080 14 bc 13 4e ab 57 07 40 d8 a3 70 3d 0a d7 ef bf
       2.9178072070858523 -0.9950000000000001
000090 fb cc 9f 14 13 39 e0 bf 71 82 b2 5b a7 56 51 40
       -0.506967106134112 69.35396473343441
0000a0 00 00 00 00 00 00 00 00 00 00 00 00 00 00 00 00
       0.0 0.0
0000b0 00 00 00 00 00 00 00 00 00 00 00 00 00 00 00 00
       0.0 0.0
0000c0 1b 01 6e 29 ca 54 87 40 6a ef ac ba c3 4a 4d c0
       746.59871183339 -58.584098181191465
0000d0 8c a4 55 77 89 42 34 c0 00 00 00 00 00 20 59 c0
       -20.25991006699455 -100.5
0000e0 19 04 56 0e 2d b2 f7 bf 49 2e ff 21 fd 76 f6 bf
       -1.481 -1.40405
0000f0 22 fd f6 75 e0 1c f7 bf c0 da d8 c3 ee 8d 77 40
       -1.44455 376.87079224308764
000100 cc 06 9c df 43 d4 50 40 00 00 00 00 00 00 e0 bf
       67.31664266812294 -0.5
000110 00 00 00 00 00 00 e0 bf 71 3d 0a d7 a3 70 e1 bf
       -0.5 -0.545
000120 78 35 ba 33 1a 1c 59 40 00 00 00 00 00 00 00 00
       100.43909924683055 0.0
000130 00 00 00 00 00 00 00 00 00 00 00 00 00 00 00 00
       0.0 0.0
000140 90 c2 f5 28 5c eb 67 c0 bd c3 37 3c cd 25 5a c0
       -191.35500000000002 -104.59065156408083
000150 e7 6f 3b 47 0a 0d 6e 40 6b 39 28 b5 2b e1 66 c0
       240.4075046692735 -183.0365854058867
000160 0e 96 fd e2 f6 c9 80 40 c6 33 68 e8 9f e0 f7 bf
       537.2455501376551 -1.49234
000170 fc cb ee c9 c3 c2 f7 bf 8d c3 81 d1 92 19 30 40
       -1.4850500000000002 16.09989652078689
000180 fc cb ee c9 c3 c2 f7 bf b3 21 ff cc 20 de fc bf
       -1.4850500000000002 -1.8042304999999998
000190 a5 ad f7 47 92 54 f8 bf 56 ff 13 2f b8 78 74 40
       -1.5206473170500001 327.544966772189
0001a0 74 e6 2b 5f 79 7a 4b c0 0e 2a 16 64 30 42 59 c0
       -54.95682897227826 -101.03420355
0001b0 aa d3 b5 dc 0a aa 52 40 fc 40 a8 e4 5a 30 44 c0
       74.65691297298932 -40.37777384009857
0001c0 64 f9 83 bc 4d 7a 53 40 00 00 00 00 00 00 e0 bf
       77.91099465263466 -0.5
0001d0 00 00 00 00 00 00 e0 bf 7f 4d b5 9a 9e b5 e1 bf
       -0.5 -0.553420355
0001e0 50 33 b2 b5 45 0e 17 c0 f3 1d 5d 0e b2 d8 16 c0
       -5.763937796594135 -5.71161673014966
0001f0 5c c5 7a ef b6 8d 73 40 7c e8 97 52 ab 7d 16 c0
       312.857161979269 -5.622723856469857
000200 5f ec c1 01 cf 98 77 40 8d 6f 42 60 e5 af 0e c0
       377.55053878547 -3.835886718776186
000210 9b c0 47 0c 7e a7 08 c0 c8 08 2a fb ad 89 09 c0
       -3.08178338617297 -3.1922263738825656
000220 10 46 2c 52 d3 83 62 c0 a5 17 9d c8 a2 24 61 c0
       -148.11954601905063 -137.14487105066397
000230 66 66 66 66 66 de 67 c0 3e 3c f4 51 56 d0 6c 40
       -190.95 230.51053712560855
000240 00 00 00 00 00 00 00 00 00 00 00 00 00 00 00 00
       0.0 0.0
000250 00 00 00 00 00 00 00 00 00 00 00 00 00 00 00 00
       0.0 0.0
000260 00 00 00 00 00 00 e0 bf 00 00 00 00 00 80 38 40
       -0.5 24.5
000270 00 00 00 00 00 00 00 00 00 00 00 00 00 00 00 00
       0.0 0.0
000280 50 da ea 79 a9 28 72 40 39 d2 64 fa 10 62 22 c0
       290.5413760351121 -9.191535782630227
000290 91 af ea e0 e5 93 22 c0 45 54 c4 93 32 c7 22 c0
       -9.288863209388895 -9.389057748523678
0002a0 b0 4c 1c a3 87 13 71 40 fe e2 1e e5 83 6a 1c c0
       273.22061453871265 -7.104018764505552
0002b0 af 41 5e 5c 24 30 1d c0 20 6a c7 fa 06 2a 1d c0
       -7.297013705494847 -7.291042250081347
0002c0 92 88 e2 98 0e 6b 68 c0 ca e0 4b 63 9e f7 67 c0
       -195.34553188557453 -191.7380844575876
0002d0 66 66 66 66 66 de 67 c0 75 7c a8 07 6b 54 52 40
       -190.95 73.31903258756377
0002e0 00 00 00 00 00 00 00 00 00 00 00 00 00 00 00 00
       0.0 0.0
0002f0 00 00 00 00 00 00 00 00 00 00 00 00 00 00 00 00
       0.0 0.0
000300 00 00 00 00 00 00 e0 bf 00 00 00 00 00 00 e0 bf
       -0.5 -0.5
000310 00 00 00 00 00 00 e0 bf 00 00 00 00 00 20 59 c0
       -0.5 -100.5
