Sem4/SI/lab7/saved_models/FrozenLake/QAgent/run-2025-05-28_10-20-01/model.npy (npy, 928 bytes, 1 tensors)

array f8 [25, 4]
000000 00 00 00 00 00 00 00 00 00 00 00 00 00 00 00 00
       0.0 0.0
000010 00 00 00 00 00 00 00 00 00 00 00 00 00 00 00 00
       0.0 0.0
000020 3b 2b 7f 92 df d6 46 40 33 33 33 33 33 33 d3 bf
       45.67869788369577 -0.3
000030 5b b1 bf ec 9e 3c d4 bf c8 26 15 d7 ab 74 8c 40
       -0.3162 910.5839063312969
000040 82 b9 ae d1 d7 d6 51 40 39 b4 c8 76 be 9f e2 bf
       71.35692255080178 -0.582
000050 a0 37 41 75 c5 a6 da bf c0 46 97 00 51 77 87 40
       -0.41642891359958334 750.9145519083468
000060 f3 a3 c0 77 35 aa 53 40 83 1a 41 54 22 5b 5b 40
       78.65951341450254 109.42397028310556
000070 6a 25 c2 57 ff 28 4b 40 e1 77 cf 04 45 4f 82 40
       54.32029244403641 585.9087005814037
000080 0b 62 09 d0 54 64 40 40 4e c0 2c 8a 31 2a 69 40
       32.78383827646402 201.31854733219592
000090 6a cf cb fc 06 3f 3f 40 de f0 be 1a ff 01 2a 40
       31.24620037055812 13.003899417694296
0000a0 00 00 00 00 00 00 00 00 00 00 00 00 00 00 00 00
       0.0 0.0
0000b0 00 00 00 00 00 00 00 00 00 00 00 00 00 00 00 00
       0.0 0.0
0000c0 ac a6 f5 33 7e e6 82 40 3f 17 5c 60 8a bb 55 c0
       604.8116225425233 -86.93032082551234
0000d0 71 ad 24 2f 20 51 53 c0 02 2b 87 16 d9 3e 5d c0
       -77.2675893648318 -116.982
0000e0 aa 2e 10 8d bf da 51 40 54 de 6d 18 03 1a 17 40
       71.41794134693433 5.775402433114852
0000f0 c2 62 74 f6 39 5e 77 40 c6 3f ba 14 fa 85 40 40
       373.8891510530776 33.046694365446044
000100 76 3b d8 8f 45 23 78 40 51 b3 db 80 6e c1 2c 40
       386.2044828840802 14.377796198672202
000110 ea 98 9d 27 21 8a 3c 40 21 e1 dc af 1c ac 45 40
       28.539568401313694 43.34462545666816
000120 99 04 50 a9 5b 04 6b 40 9a c4 3a 5a 32 e5 2a 40
       216.1361891329623 13.44764978377707
000130 65 9f 46 a9 14 db 26 40 01 d9 e2 fe 01 ba 3f 40
       11.427892007704665 31.726592951185925
000140 da c1 d2 0a 1d 8b 6b c0 be fb 87 40 a3 6f 39 40
       -220.34729520000002 25.436084778975548
000150 b5 18 23 d7 0e 7f 68 c0 d1 99 b2 e7 44 ba 6a c0
       -195.97056156973636 -213.82091126330354
000160 c3 f5 7d bc 5f ce 23 c0 3b 46 25 73 16 6b 30 c0
       -9.903074159980752 -16.418311306572132
000170 7e cb 02 b5 a2 5b 69 40 02 ad bf dd 6e 0f 31 c0
       202.86361170335653 -17.060285434051373
000180 11 53 fb 12 bf 0d 70 40 a9 45 b3 ab b8 74 2f c0
       256.85914896176934 -15.727971425660899
000190 00 e9 d4 eb 47 08 21 c0 2d 78 c0 9a 81 1c 2d c0
       -8.516173715343484 -14.55567630385857
0001a0 5f 51 c7 43 b1 99 62 40 e2 33 e1 6a 2a 4e 65 c0
       148.80288876466054 -170.44267791733643
0001b0 09 90 14 50 f2 61 62 c0 39 b7 26 29 fa 9a 65 c0
       -147.06082920089855 -172.84303720056212
0001c0 f8 fa f6 db 4a b7 58 40 5d 9a e2 e0 01 62 07 c0
       98.8639440452497 -2.9228551453737013
0001d0 59 77 fa c8 89 47 fd bf f1 07 44 dc b1 4e 13 c0
       -1.8299653864591703 -4.826850358631405
0001e0 fe e3 57 5d de b8 34 c0 ee 7a d7 45 37 bf 4b 40
       -20.722143014867463 55.49387429257864
0001f0 82 77 a0 7f 47 d7 3e c0 9d d6 ad 19 e2 d6 3e c0
       -30.84093473117492 -30.839387516919135
000200 b4 6e bc e7 ff 9b 60 40 34 df 61 eb 3b 45 2b c0
       132.8749884300538 -13.635222774216892
000210 ec 7c f5 92 10 6f 2b c0 70 27 1a a5 ec 1c 2f c0
       -13.71692332503013 -15.556492957537301
000220 2f f5 9b 46 a3 b8 64 c0 3a 8c 10 af 08 34 52 c0
       -165.76993113003252 -72.81303001991265
000230 6a 87 bf 26 6b 48 65 c0 1a 68 d0 60 7d 58 62 c0
       -170.26308 -146.76530495361732
000240 00 00 00 00 00 00 00 00 00 00 00 00 00 00 00 00
       0.0 0.0
000250 00 00 00 00 00 00 00 00 00 00 00 00 00 00 00 00
       0.0 0.0
000260 19 70 1e bb 53 d0 42 40 80 54 65 40 21 d9 62 c0
       37.627555265295264 -150.7853090266326
000270 c8 65 ab 07 2d ad 62 c0 6a 87 bf 26 6b 48 65 c0
       -149.41174682117548 -170.26308
000280 b8 6c 12 f3 9b b4 2c c0 dc 76 61 67 3e 7d 33 c0
       -14.3527523002616 -19.48923345689296
000290 69 26 e2 65 a5 8a 4d 40 06 55 82 91 97 f9 37 c0
       59.08317254583819 -23.974969000167242
0002a0 12 18 c1 a4 6c ee 55 40 1c c7 d9 e9 f1 e4 2b c0
       87.7253810773548 -13.947158153375817
0002b0 46 a9 85 fb b0 4d 3b c0 a4 bd e9 3b c3 7e 33 c0
       -27.303481788761268 -19.495166534963246
0002c0 92 e3 75 98 bf 10 61 c0 16 52 26 70 93 73 5e c0
       -136.52338812852082 -121.8058739065385
0002d0 b9 df a1 28 d0 4f 5d c0 32 36 37 d5 b7 dc 36 40
       -117.24708 22.86218006704275
0002e0 00 00 00 00 00 00 00 00 00 00 00 00 00 00 00 00
       0.0 0.0
0002f0 00 00 00 00 00 00 00 00 00 00 00 00 00 00 00 00
       0.0 0.0
000300 81 ba c1 d4 cc b7 6a c0 ce fb 69 0c 6d 35 67 c0
       -213.74375379407505 -185.66956158351826
000310 c4 f5 74 b7 06 6c 69 c0 00 ca 4e b3 f5 aa 6b c0
       -203.37581990092997 -221.34249272716988
