Sem4/SI/lab7/saved_models/FrozenLake/QAgent/run-2025-05-28_10-30-13/model.npy (npy, 928 bytes, 1 tensors)

array f8 [25, 4]
0.0 0.0 0.0 0.0 -0.05 -0.05 -0.05 938.7156778034719
-0.09995000000000001 -0.05045 0.17945865659582044 746.3402966742366 -0.05 198.8082757210582 0.0 0.0
-0.19970019995 4.186863712852672 -0.19970019995 -0.19694660982757825 0.0 0.0 0.0 0.0
592.8719879122062 -20.099616488952144 -26.818781152593736 -19.9995 606.9646493569794 1.5562979558613725 -0.8930653669668778 -0.8922606105965144
-0.9576150765972 -1.0553083584639398 -1.0893722988187857 406.1667798252504 -0.1494005 -0.14940050000000002 -0.15011494204709824 58.05998319450742
-58.67744063892125 217.28575331071673 -60.95219260639665 -57.612455567027425 491.253288071313 -5.659727027383032 -5.668833325318372 -5.826034620168872
466.55406564939034 -3.2211246552936563 -3.1902185739125786 -3.1392986531599267 94.20235172324408 -29.849505 -35.847712029493835 -29.491279177698143
4.254495377036459 -0.32267614578669745 -0.347607139707797 -0.42469837892243334 -14.480499091778508 -14.32643367359439 308.639736108094 -14.296139759951965
393.87071573373834 -9.865303967963314 -9.80160273676158 -9.769333628388607 -36.72632273337345 -41.583510442934035 -39.60100995 238.19701142569724
0.0 0.0 0.0 0.0 -10.201464993314076 -7.771521484499999 3.340063988396918 -10.05
-15.516911379549116 -14.25974415536217 269.6229322845071 -15.502679185455584 318.9738131480902 -14.042253117751628 -12.358823689198916 -14.014140052992158
-80.84388295350502 -75.42169571679932 -77.57352835605155 192.77158571407753 0.0 0.0 0.0 0.0
-10.106387488360498 -0.09995000000000001 -0.09995000000000001 -10.078334295000001
00000000: 0000 0000 0000 0000 0000 0000 0000 0000
00000010: 0000 0000 0000 0000 0000 0000 0000 0000
00000020: 9a99 9999 9999 a9bf 9a99 9999 9999 a9bf
00000030: 9a99 9999 9999 a9bf 14c3 48b5 b955 8d40
00000040: 1236 3cbd 5296 b9bf 3199 2a18 95d4 a9bf
00000050: 1615 8852 80f8 c63f 4576 76ed b852 8740
00000060: 9a99 9999 9999 a9bf 1183 0b65 ddd9 6840
00000070: 0000 0000 0000 0000 0000 0000 0000 0000
00000080: cc1b e5b1 c68f c9bf a20b 7e33 59bf 1040
00000090: cc1b e5b1 c68f c9bf 1f3e 22e8 8b35 c9bf
000000a0: 0000 0000 0000 0000 0000 0000 0000 0000
000000b0: 0000 0000 0000 0000 0000 0000 0000 0000
000000c0: 776b ccd4 f986 8240 1a31 5a77 8019 34c0
000000d0: a6f8 40a4 9bd1 3ac0 1d5a 643b dfff 33c0
000000e0: ac02 159a b7f7 8240 9619 74af 98e6 f83f
000000f0: ec03 0ad2 fd93 ecbf 33ac c01f 668d ecbf
00000100: 3e87 845f c8a4 eebf e1c4 6c04 8be2 f0bf
00000110: 3885 c9a5 116e f1bf 5471 5221 ab62 7940
00000120: 2ec6 c03a 8e1f c3bf 2fc6 c03a 8e1f c3bf
00000130: 3ada 5d67 f736 c3bf 075c 8187 ad07 4d40
00000140: f592 f65f b656 4dc0 1188 20e4 2429 6b40
00000150: bafb 8372 e179 4ec0 6651 abf1 64ce 4cc0
00000160: 1aec ca77 0db4 7e40 f596 5b7b 8fa3 16c0
00000170: 8dde aaa4 e2ac 16c0 d3f4 fb04 dc4d 17c0
00000180: 7f3f f173 dd28 7d40 ae9a d600 ddc4 09c0
00000190: ca5e d050 9185 09c0 0197 bd9c 481d 09c0
000001a0: d867 a454 f38c 5740 dac9 e028 79d9 3dc0
000001b0: 088d e9d3 81ec 41c0 576b e178 c47d 3dc0
000001c0: 4c6b a56f 9a04 1140 ba9a 56d9 b9a6 d4bf
000001d0: 7aab 3904 323f d6bf 52b5 081c 422e dbbf
000001e0: 8ee4 19fa 03f6 2cc0 56cd 8050 22a7 2cc0
000001f0: 58e5 ed5b 3c4a 7340 f513 70a1 9f97 2cc0
00000200: 4d08 9f73 ee9d 7840 c000 271f 09bb 23c0
00000210: d88c 85ac 6b9a 23c0 bf48 eb18 e689 23c0
00000220: 1417 b124 f85c 42c0 59a3 5e78 b0ca 44c0
00000230: 09e9 dfe4 edcc 43c0 dbc9 e7ea 4dc6 6d40
00000240: 0000 0000 0000 0000 0000 0000 0000 0000
00000250: 0000 0000 0000 0000 0000 0000 0000 0000
00000260: 4825 6b6b 2667 24c0 005b 60ba 0916 1fc0
00000270: 5ab2 e577 73b8 0a40 9a99 9999 9919 24c0
00000280: f92f bc9b a808 2fc0 2037 992f fd84 2cc0
00000290: 4ad9 d787 f7d9 7040 c4d2 8b2a 5f01 2fc0
000002a0: 6577 18bd 94ef 7340 68cb 5d33 a215 2cc0
000002b0: 6147 14bd b7b7 28c0 7e54 725d 3d07 2cc0
000002c0: 2ebd a52d 0236 54c0 0c21 0810 fdda 52c0
000002d0: 7c24 47b0 b464 53c0 c300 86d4 b018 6840
000002e0: 0000 0000 0000 0000 0000 0000 0000 0000
000002f0: 0000 0000 0000 0000 0000 0000 0000 0000
00000300: 816c be6b 7836 24c0 1236 3cbd 5296 b9bf
00000310: 1236 3cbd 5296 b9bf 465c c66e 1b28 24c0
