Sem4/SI/lab7/saved_models/FrozenLake/QAgent/run-2025-05-28_10-20-30/model_best.npy (npy, 928 bytes, 1 tensors)

array f8 [25, 4]
00000000: 0000 0000 0000 0000 0000 0000 0000 0000
00000010: 0000 0000 0000 0000 0000 0000 0000 0000
00000020: 3333 3333 3333 c3bf 3333 3333 3333 c3bf
00000030: 3333 3333 3333 c3bf 19ac ce1c 019e 8a40
00000040: 3333 3333 3333 c3bf d417 45ef 098b 0140
00000050: aecf ef7a 31f0 5440 0000 0000 0000 0000
00000060: 82e2 40cc 4c0d d33f 2199 d19f cc08 cb3f
00000070: cc16 b1a8 fb3a 3c40 cad3 357b 495d ec3f
00000080: 3333 3333 3333 c3bf 0da0 dff7 6f5e babf
00000090: 9ec4 6afc 816d b6bf 362c cdc2 302c 3640
000000a0: 0000 0000 0000 0000 0000 0000 0000 0000
000000b0: 0000 0000 0000 0000 0000 0000 0000 0000
000000c0: dcc9 10e6 de3b 8240 b662 f85a abae 4dc0
000000d0: 76a3 6df7 8d0d 4ec0 f73e 4dc6 8a84 52c0
000000e0: d51b bf15 e75d 5540 38e3 0293 d56d eebf
000000f0: 9992 1132 c2e5 edbf 3c4b ea49 7695 f4bf
00000100: 47b1 40a0 4a33 3240 b6f3 fdd4 78e9 d2bf
00000110: b6f3 fdd4 78e9 d2bf 4013 61c3 d32b d3bf
00000120: 08e7 86b4 35b0 3b40 924a 84f6 49ae e2bf
00000130: bc2c 9075 013e e3bf 07e4 b0c4 3c1e e2bf
00000140: 1eee cca2 ab51 5cc0 b9da 3a32 4e4f 5240
00000150: 2c6f 0220 22d7 5ac0 9333 b3eb 2dbd 5bc0
00000160: 24b3 cf2f c1c5 7740 3fd5 a172 c7be 30c0
00000170: 877b 2eb1 b097 30c0 0dfc ed98 8775 30c0
00000180: c666 1f45 c78a 4140 71b5 b9ba 53e1 1fc0
00000190: 133e d539 50f3 1fc0 b98f ea35 ec8d 1ec0
000001a0: 4388 bdc1 d22a 55c0 e2f9 0cf1 def9 55c0
000001b0: d8f8 7231 8534 4cc0 6db0 a63f 24b0 55c0
000001c0: 36f3 93b2 9c42 1240 a2e7 f6e2 42b9 f6bf
000001d0: f264 a79c b2c0 f4bf b48d 5e28 4ec5 f5bf
000001e0: fc5d b0f6 bdcf 3ec0 e287 b405 6e77 3ec0
000001f0: 7ad2 fe7b 9356 6540 fd79 dce9 4b70 3dc0
00000200: 7373 1243 1e51 6f40 7e51 9556 6431 3ac0
00000210: c98c c282 e862 3ac0 f52c 723d 650f 3ac0
00000220: 8001 f45d e137 57c0 0cde 9448 904d 58c0
00000230: 928c aa87 0307 5dc0 46ba 3b46 817f 2a40
00000240: 0000 0000 0000 0000 0000 0000 0000 0000
00000250: 0000 0000 0000 0000 0000 0000 0000 0000
00000260: 6a98 29bf c37a 46c0 6666 6666 6626 3ec0
00000270: 89cd 4b33 f6a3 37c0 6666 6666 6626 3ec0
00000280: d840 43f6 526e 6040 5c85 9840 decd 3fc0
00000290: 8442 fa48 0fd4 3fc0 e9f3 b038 20d3 3fc0
000002a0: 4d1f 87e9 8979 5740 0a26 1d38 f3e2 41c0
000002b0: 63de 9d53 23eb 42c0 0216 79f7 ed35 43c0
000002c0: 263a fb9c 50db 63c0 e982 d4e9 4199 64c0
000002d0: c41d 806f 92a7 64c0 9b35 90cb 0513 57c0
000002e0: 0000 0000 0000 0000 0000 0000 0000 0000
000002f0: 0000 0000 0000 0000 0000 0000 0000 0000
00000300: 930c 8c64 f282 ee3f 0000 0000 0000 0000
00000310: 0000 0000 0000 0000 0000 0000 0000 0000
0.0 0.0 0.0 0.0 -0.15 -0.15 -0.15 851.75054322684
-0.15 2.1928900425873312 83.75302003306453 0.0 0.29768676706911645 0.21120603374146987 28.230402510866767 0.8863875776720473
-0.15 -0.10300349999999998 -0.08760845577741569 22.172619032946578 0.0 0.0 0.0 0.0
583.4838372527697 -59.36460435035899 -60.10589497426456 -74.07097013038207 85.46722930586778 -0.9509075042070441 -0.9342967012313067 -1.2864897620499525
18.200357452196183 -0.2955 -0.2955 -0.29955 27.6883194760658 -0.5837755026608014 -0.60131905519065 -0.5661910859699909
-113.27610082638463 73.23914771792887 -107.36145782697412 -110.9559277772917 380.3596647370598 -16.74523083163262 -16.592539857719682 -16.459100301839545
35.0842062381103 -7.970045964798701 -7.987610725059784 -7.638596384469502 -84.66911357411395 -87.90423227565 -56.410314732683844 -86.75221244123686
4.565050878791956 -1.4202298036384282 -1.2970453376095148 -1.3606702401092265 -30.8114923649391 -30.4665225568532 170.70550346155125 -29.43865834839561
250.53494409183222 -26.192937289671583 -26.38636033296351 -26.060138550162225 -92.87313031033227 -97.21193136728124 -116.10959045081316 13.24903316001031
0.0 0.0 0.0 0.0 -44.95909871607803 -30.15 -23.64047546959549 -30.15
131.44762719283494 -31.804172551380688 -31.828358231638518 -31.824710410310136 93.8990424937776 -35.77304746077796 -37.83701558311875 -38.42132466709519
-158.8535904795437 -164.78929606920363 -165.2366254331847 -92.29722870905827 0.0 0.0 0.0 0.0
0.9534847225007915 0.0 0.0 0.0
