Sem4/SI/lab7/saved_models/FrozenLake/QAgent/run-2025-05-28_10-13-21/model.npy (npy, 928 bytes, 1 tensors)

array f8 [25, 4]
0	0x0000000000000000	0.0
1	0x0000000000000000	0.0
2	0x0000000000000000	0.0
3	0x0000000000000000	0.0
4	0xbfe0000000000000	-0.5
5	0xbffe4352f0d01130	-1.8914365202663923
6	0xbffbaf71e7a1e474	-1.7303332374706573
7	0x4089ec4535a6cd3b	829.5337937384969
8	0xbfef333333333334	-0.9750000000000001
9	0xbff106014dfc850e	-1.0639660879463153
10	0xbfe83c6b08f23c13	-0.7573752569895781
11	0x407569939654a7c7	342.5985320383883
12	0xbff664e828f90b98	-1.399635467577104
13	0xbffbe53ba28877da	-1.7434650753925696
14	0x4029d17df0ec1bc6	12.909163979360425
15	0x405f7101a364323b	125.76572499069964
16	0xc005d77ab3623ebe	-2.7302145017964383
17	0xc00532f8655b4bbd	-2.649887840126637
18	0xc00663e2c902f99a	-2.7987724021942997
19	0x404a9ef0d44791af	53.24172452444633
20	0x0000000000000000	0.0
21	0x0000000000000000	0.0
22	0x0000000000000000	0.0
23	0x0000000000000000	0.0
24	0xc067c8c27f680096	-190.27374239266345
25	0xc06d98bae0b01be8	-236.77281221767703
26	0x4056a0b3316cb132	90.5109370767066
27	0xc067de6666666666	-190.95
28	0x4060a7751722cb8c	133.23304325862807
29	0xc0238ba47b07b6be	-9.772739262286787
30	0xc02bb682a4020dc0	-13.856465459109018
31	0xc0303c03ae43896b	-16.234431163300012
32	0x404b8198b47be53f	55.012472687240454
33	0xc0181524a958e795	-6.020647665072734
34	0xc01a7f19ef54a58a	-6.624122371236249
35	0xc01f7f44d515dd69	-7.8742860121341005
36	0xc013168936f6a4f0	-4.772007807544682
37	0xc01201f351ad3b8f	-4.501904751013071
38	0xc012664123aa1dbd	-4.5998578617649715
39	0x403a994c26178301	26.598818188419504
40	0xc07599e978d4fdf4	-345.6195
41	0xc059cea95fa06b8a	-103.2290877405741
42	0xc075394fbca42867	-339.581967011682
43	0xc075af18286cd3a4	-346.9433979273838
44	0xc040d0ec2cba296a	-33.63220748033457
45	0xc0405d6b40f44846	-32.729835624006725
46	0x402f7a9a1ee47f16	15.73945709742797
47	0xc042031cce49370e	-36.024316583394565
48	0x403b0784408ee665	27.02936175812501
49	0xc038e8e776f8add0	-24.909781871521602
50	0xc038b9668df5faf6	-24.724221108011044
51	0xc0398d440a884dbe	-25.55181947543837
52	0xc06f34820cc7da11	-249.64087523492393
53	0xc07105ae147ae148	-272.355
54	0xc0624522734950fd	-146.16045536346056
55	0xc06f91dca0391932	-252.5581818690494
56	0xbffc88ea44dd21a0	-1.783426541327664
57	0xc02c9044425b4cf2	-14.281770776410188
58	0xc02e4a3b6651bf9a	-15.144984433630999
59	0xc02bff62816dcfcc	-13.998798412947416
60	0xc046b38d9e2e2382	-45.40275933506838
61	0xc0250a8117e05259	-10.520516153462426
62	0xc0450421c918f08b	-42.03228105275874
63	0xc043e1079ac333a2	-39.758044572175336
64	0xc0410528ba30f1fa	-34.04030539884475
65	0xc041ff1d44f26124	-35.993080728864044
66	0xc04204a20ed31a23	-36.03619561488838
67	0xc027122091f79a3e	-11.535404740786472
68	0xc06ff7565ed7ee34	-255.72929327176973
69	0xc06d0bf1b90fe5fa	-232.37325718979974
70	0xc06dc79613b9a048	-238.23706995253656
71	0xc0602c86d262602a	-129.39145774091713
72	0x0000000000000000	0.0
73	0x0000000000000000	0.0
74	0x0000000000000000	0.0
75	0x0000000000000000	0.0
76	0xc0525021abf5e7cb	-73.25205515875057
77	0xc06308cd2fe8338b	-152.27504725791763
78	0xc059a3b711089455	-102.5580484946998
79	0xc0593ccccccccccd	-100.95
80	0xc028aab7e9c0d5b9	-12.333434395589267
81	0xc0282c2ce4b7e16a	-12.08628000969539
82	0xc028208f530afcb9	-12.063593478289805
83	0xc02416f907877d55	-10.0448686936276
84	0xc03f26c6cad95caa	-31.151470830981147
85	0xc03f18ea21efa614	-31.097322579391474
86	0xc043b5f9f61bec6b	-39.42169071544125
87	0xc0297bf4bd6dbcaf	-12.74210159267963
88	0xc06f6c962a714de3	-251.39333078508125
89	0xc071c9a5cbcbbf91	-284.6029775580328
90	0xc0742b166d554a00	-322.692975361977
91	0xc054758b4db71e00	-81.83662741549051
92	0x0000000000000000	0.0
93	0x0000000000000000	0.0
94	0x0000000000000000	0.0
95	0x0000000000000000	0.0
96	0xc05bb0936037f237	-110.75899510825626
97	0xc0549b0a9fa0315c	-82.42252340930776
98	0xc05a62cd4857e0d0	-105.54377945501187
99	0xc067eb5c28f5c290	-191.35500000000002
