Sem4/SI/lab7/saved_models/FrozenLake/QAgent/run-2025-05-28_10-13-21/model_best.npy (npy, 928 bytes, 1 tensors)

array f8 [25, 4]
000000 00 00 00 00 00 00 00 00 00 00 00 00 00 00 00 00
       0.0 0.0
000010 00 00 00 00 00 00 00 00 00 00 00 00 00 00 00 00
       0.0 0.0
000020 00 00 00 00 00 00 e0 bf 30 11 d0 f0 52 43 fe bf
       -0.5 -1.8914365202663923
000030 74 e4 a1 e7 71 af fb bf fd d1 46 c3 11 60 85 40
       -1.7303332374706573 684.0086732418855
000040 34 33 33 33 33 33 ef bf 0e 85 fc 4d 01 06 f1 bf
       -0.9750000000000001 -1.0639660879463153
000050 13 3c f2 08 6b 3c e8 bf 00 42 05 89 4e 3c 73 40
       -0.7573752569895781 307.7691736417182
000060 98 0b f9 28 e8 64 f6 bf da 77 88 a2 3b e5 fb bf
       -1.399635467577104 -1.7434650753925696
000070 c6 1b ec f0 7d d1 29 40 36 5a c9 79 39 3f 49 40
       12.909163979360425 50.49394152003917
000080 be 3e 62 b3 7a d7 05 c0 bd 4b 5b 65 f8 32 05 c0
       -2.7302145017964383 -2.649887840126637
000090 9a f9 02 c9 e2 63 06 c0 8e 5d 18 37 72 ac 16 40
       -2.7987724021942997 5.668404446470403
0000a0 00 00 00 00 00 00 00 00 00 00 00 00 00 00 00 00
       0.0 0.0
0000b0 00 00 00 00 00 00 00 00 00 00 00 00 00 00 00 00
       0.0 0.0
0000c0 96 00 68 7f c2 c8 67 c0 e8 1b b0 e0 ba 98 6d c0
       -190.27374239266345 -236.77281221767703
0000d0 52 bb c0 36 5d 26 23 40 66 66 66 66 66 de 67 c0
       9.57492991545374 -190.95
0000e0 a6 30 e7 76 85 8c 5c 40 be b6 07 7b a4 8b 23 c0
       114.19564602448608 -9.772739262286787
0000f0 c0 0d 02 a4 82 b6 2b c0 6b 89 43 ae 03 3c 30 c0
       -13.856465459109018 -16.234431163300012
000100 35 29 a4 be f4 aa 2b 40 95 e7 58 a9 24 15 18 c0
       13.83389850381773 -6.020647665072734
000110 8a a5 54 ef 19 7f 1a c0 69 dd 15 d5 44 7f 1f c0
       -6.624122371236249 -7.8742860121341005
000120 f0 a4 f6 36 89 16 13 c0 8f 3b ad 51 f3 01 12 c0
       -4.772007807544682 -4.501904751013071
000130 bd 1d aa 23 41 66 12 c0 7b dd 04 4f 29 53 05 40
       -4.5998578617649715 2.665606133781407
000140 f4 fd d4 78 e9 99 75 c0 3c d8 fc 04 09 88 6d c0
       -345.6195 -236.25110101112102
000150 67 28 a4 bc 4f 39 75 c0 a4 d3 6c 28 18 af 75 c0
       -339.581967011682 -346.9433979273838
000160 6a 29 ba 2c ec d0 40 c0 46 48 f4 40 6b 5d 40 c0
       -33.63220748033457 -32.729835624006725
000170 b9 86 26 b6 4b 1d 2b 40 0e 37 49 ce 1c 03 42 c0
       13.557218258097565 -36.024316583394565
000180 b3 29 23 c0 0a ca 44 40 d0 ad f8 76 e7 e8 38 c0
       41.57845308033884 -24.909781871521602
000190 f6 fa f5 8d 66 b9 38 c0 be 4d 88 0a 44 8d 39 c0
       -24.724221108011044 -25.55181947543837
0001a0 f5 2d b9 66 c0 26 41 c0 66 66 66 66 66 de 67 c0
       -34.30274662057847 -190.95
0001b0 b8 e4 6d d2 c7 56 64 c0 8a 0d 64 8b 01 f1 63 c0
       -162.7118923326832 -159.53143853704051
0001c0 92 98 15 3a dc 5e 2a c0 f2 4c 5b 42 44 90 2c c0
       -13.185273947845676 -14.281770776410188
0001d0 0b 8b be 3c 5d 9d 1c c0 cc cf 6d 81 62 ff 2b c0
       -7.153675984506445 -13.998798412947416
0001e0 53 bd ae 81 6a 34 47 c0 ba 3e 0f 98 be 3d 2b c0
       -46.409500322649045 -13.620594741688695
0001f0 d4 62 69 ef 92 ef 46 c0 35 f7 b7 ae d0 ab 45 c0
       -45.871671606500655 -43.342305984332064
000200 af 56 82 4e fd 28 f8 bf d8 f7 47 96 7d cf 3e c0
       -1.5100071970713704 -30.810510056085917
000210 23 1a d3 0e a2 04 42 c0 03 10 ad 13 4e ee 3e c0
       -36.03619561488838 -30.93087885832939
000220 b2 6b 77 71 ca ec 6b c0 e6 b0 7a 5f 86 e8 6a c0
       -223.39971230816224 -215.26640294993484
000230 b2 43 03 ac 6d 16 67 c0 8b 9b 43 47 36 af 05 c0
       -184.7008876861342 -2.710552746535034
000240 00 00 00 00 00 00 00 00 00 00 00 00 00 00 00 00
       0.0 0.0
000250 00 00 00 00 00 00 00 00 00 00 00 00 00 00 00 00
       0.0 0.0
000260 0c d1 e1 10 1e 02 57 c0 b8 56 e2 5d ab 53 4f 40
       -92.03308507969285 62.653667197720495
000270 55 94 08 11 b7 a3 59 c0 cd cc cc cc cc 3c 59 c0
       -102.5580484946998 -100.95
000280 b1 75 cd 02 22 9e 29 c0 a2 53 80 15 19 ef 28 c0
       -12.808853232937368 -12.466988250651244
000290 4a 61 be a8 75 e7 26 c0 91 f2 28 7a 79 42 29 c0
       -11.45206954311347 -12.629833047388532
0002a0 b3 86 6a b1 13 31 40 c0 02 7d 99 39 d5 25 3f c0
       -32.38341348363374 -31.147784805271847
0002b0 6b ec 1b f6 f9 b5 43 c0 2d dc 9a 13 1f c0 26 c0
       -39.42169071544125 -11.375237095502678
0002c0 2e b2 7f 54 d0 d5 70 c0 91 bf cb cb a5 c9 71 c0
       -269.3633618343473 -284.6029775580328
0002d0 00 4a 55 6d 16 2b 74 c0 58 dc c7 80 dd ee 56 c0
       -322.692975361977 -91.73226947324417
0002e0 00 00 00 00 00 00 00 00 00 00 00 00 00 00 00 00
       0.0 0.0
0002f0 00 00 00 00 00 00 00 00 00 00 00 00 00 00 00 00
       0.0 0.0
000300 6b 63 4a 4b 0d 9f 58 c0 d2 13 0d 62 e6 b9 59 c0
       -98.48518640770423 -102.90468646313755
000310 70 26 65 72 d0 33 08 c0 cd cc cc cc cc 3c 59 c0
       -3.0252999245756698 -100.95
